data/models/SINet_Softmax_simple.onnx (onnx, 395434 bytes, 223 tensors)

0.bn_2.bias f4 [2]
000000 8a 90 08 bf b6 ce ca 3e
       -0.5334555 0.39610833

0.bn_2.running_mean f4 [2]
000000 ff a3 0d c0 76 d8 f9 3f
       -2.2131345 1.9519184

0.bn_2.running_var f4 [2]
000000 16 84 da 3f a2 8f 24 3e
       1.707156 0.16070417

0.bn_2.weight f4 [2]
000000 29 32 01 40 a9 2e 46 40
       2.0186865 3.096598

0.bn_3.bias f4 [2]
000000 7c 47 fa bf 31 ba fb 3f
       -1.9553065 1.9666196

0.bn_3.running_mean f4 [2]
000000 80 d0 80 bc 0c 76 6c 3e
       -0.01572442 0.23091906

0.bn_3.running_var f4 [2]
000000 86 e5 2d 3e 59 26 19 40
       0.16982087 2.3929656

0.bn_3.weight f4 [2]
000000 ac 25 c2 3f a7 fa c2 3e
       1.5167747 0.38081858

0.classifier.1.weight f4 [2, 2, 3, 3]
000000 cc 3d 52 be df f3 a4 bd 7e 2a ba 3c 12 f5 86 bd
       -0.20531386 -0.08054327 0.02272534 -0.06589712
000010 f5 ea c8 bc 8f 45 09 3d 5b 6e 95 3d 71 d1 29 3d
       -0.024526099 0.033513602 0.07296439 0.041459505
000020 97 5d df 3d ca 6b 4d 3e d5 af 54 3e c0 da 42 3e
       0.10906523 0.2006065 0.207702 0.19028759
000030 47 3f 4e 3e cd a3 82 3e ee a8 90 3e 2d 4d 03 3e
       0.20141326 0.25515595 0.28253883 0.12822409
000040 5f 72 6e 3e 80 b3 84 3e 69 57 52 3e 75 49 a5 3d
       0.23285817 0.25918198 0.20541157 0.080706514
000050 18 ad b9 bc 2c 3b 87 3d f0 0e cb 3c b6 69 09 bd
       -0.022665545 0.06603083 0.024787396 -0.03354808
000060 08 c4 95 bd 0a 2a 2a bd db 7a df bd a4 87 4d be
       -0.073127806 -0.041543998 -0.10912105 -0.20071274
000070 67 cd 54 be b9 f4 42 be c9 5c 4e be d4 b1 82 be
       -0.2078148 -0.19038667 -0.20152582 -0.25526297
000080 3d b7 90 be 12 69 03 be 95 8d 6e be 98 c2 84 be
       -0.282648 -0.1283305 -0.23296197 -0.25929713

0.encoder.BR2.bn.bias f4 [64]
000000 f7 e7 14 bf a1 0f e2 3b 0a 16 67 3e 0e bb 34 3d
       -0.5816645 0.0068988358 0.22567001 0.0441237
000010 54 db 85 bc 34 82 dc 3e 57 78 05 3f b3 f9 73 3e
       -0.016339935 0.43068087 0.5213675 0.23825721
000020 f8 37 ad be a8 2f 2d 3e a0 07 1c bc 78 8c e3 3e
       -0.33831763 0.1691271 -0.009523302 0.44443107
000030 3f c6 81 3e e5 00 35 be c7 8b a8 3d 96 b1 19 3f
       0.25346562 -0.17676122 0.082297854 0.600366
000040 c7 ff ff 3e 75 b2 bc 3e 6c 5b 5b bf 7c 6f 90 3d
       0.4999983 0.36854902 -0.85686374 0.07052514
000050 11 4b 7b bd 78 fd e5 3d f2 3f 85 3c 53 66 10 bd
       -0.061350886 0.11229986 0.016265843 -0.035253834
000060 ce be 5e be 5e b1 db 3d fb ea cd 3e fc 54 1b 3d
       -0.21752474 0.107271895 0.40218338 0.037922844
000070 1a 11 6f be 51 88 11 3e 30 bd 2b be bd 9a 2f 3e
       -0.23346367 0.14212157 -0.16771388 0.17148872
000080 1e 68 4d 3e 64 ad b1 bd 15 05 85 be af 02 a1 bd
       0.20059249 -0.0867565 -0.2598044 -0.0786184
000090 63 d9 ca b9 e4 c5 4d 3e d9 de ad bd e9 20 90 be
       -0.00038690408 0.2009502 -0.084897704 -0.28150108
0000a0 c5 35 4d 3a bb ff 0c be 9d 16 fb 3d 99 38 20 be
       0.00078281417 -0.13769428 0.122601725 -0.1564659
0000b0 de 8f 0c 3f 69 8f 99 be c7 14 f0 3d 53 cf a9 be
       0.54907024 -0.29992226 0.11722713 -0.33165988
0000c0 65 52 e0 bd 3f af a6 bd e1 c1 2f be 27 00 9d 3b
       -0.109532155 -0.08138894 -0.17163803 0.004791278
0000d0 95 b6 e5 3e 25 92 7d bd 52 55 61 be 9f 37 44 3e
       0.44865862 -0.061906952 -0.22005203 0.19161843
0000e0 91 37 f2 bd 0c 74 29 3e 14 13 b3 3d f9 de 91 3e
       -0.11827005 0.16548175 0.08743873 0.28490427
0000f0 e3 15 29 be 40 7a a1 3e 86 a7 e4 bd 45 ca 17 be
       -0.16512255 0.31538582 -0.11164765 -0.14823253

0.encoder.BR2.bn.running_mean f4 [64]
000000 22 3e b8 be 9b 03 0d 3e 38 a3 14 be 3c 06 dc 3e
       -0.35984904 0.13770907 -0.14515388 0.42973506
000010 83 15 ef 3e c1 e5 f5 be 3f 90 36 3f 34 6b dc 3e
       0.466961 -0.4802685 0.7131385 0.4305054
000020 14 14 41 3d 15 16 4a 3f 18 6f a5 3e b4 49 d9 3e
       0.04713829 0.78939945 0.3231132 0.42439044
000030 bd 8f c8 be b7 da e2 bc 98 d3 35 3e 30 65 8f 3f
       -0.39172164 -0.027692182 0.17756498 1.1202755
000040 04 95 95 3e 74 4b 1b 3e fe a5 0e 3e a3 98 03 3e
       0.29215252 0.15165502 0.13930508 0.12851195
000050 a5 f0 90 3e 6e ee 8f 3e 61 42 01 3e af c0 45 3f
       0.28308597 0.28111595 0.12622978 0.77247137
000060 dc 62 d5 3d df 9f 15 3e d5 5d a9 3e 99 f7 39 3e
       0.104192466 0.14611767 0.330794 0.18160857
000070 b6 cb ae 3e 24 56 2c 3f db 59 1d 3d 1e 4d 5e 3e
       0.34139794 0.6731894 0.03841577 0.21709105
000080 50 6b 89 3e da 87 40 3e 77 1f 2f 3d 6f d6 a2 bc
       0.26839685 0.18801823 0.042754617 -0.01987764
000090 5f 54 0d 3e 31 4f 0c 3f fc c3 b4 3d 06 60 7b 3d
       0.13801716 0.54808336 0.088264436 0.061370872
0000a0 39 c0 03 3e f8 68 5f 3e 6b 8f 9b 3e 95 66 82 3e
       0.12866296 0.21817386 0.30382857 0.2546889
0000b0 ae b7 39 3e ce ec 2a 3d 69 b9 47 bd 78 ba 4a 3e
       0.18136474 0.04172974 -0.048760805 0.19797695
0000c0 ce 45 4e 3e 49 95 c7 3d fe 3c 82 3d 01 59 62 3e
       0.20143816 0.09745271 0.063592896 0.22104265
0000d0 79 0b 60 3e a2 aa 7b 3e 9e 33 6f 3d 8f 41 70 3e
       0.21879376 0.2457681 0.058398835 0.23462509
0000e0 35 1e f4 3e 6f c3 ab 3d f0 c7 70 3e af fd 79 3e
       0.47679296 0.083868854 0.2351377 0.24413179
0000f0 b4 e1 2a bc c9 d9 f4 3e 91 7f 81 3e 1c 2f 35 3e
       -0.010429788 0.47822407 0.25292638 0.17693752

0.encoder.BR2.bn.running_var f4 [64]
000000 e1 a2 b1 3d bc dd 8c 3d d4 44 86 3c 1d d5 6a 3d
       0.08673645 0.0687823 0.016390242 0.057332147
000010 5a 01 05 3d 62 e9 bb 3e 78 bd 01 3e fb c8 43 3d
       0.032471992 0.36701494 0.12669933 0.04779909
000020 35 6f aa 3c 24 df 1c 3e 59 22 00 3d 5e be 0f 3e
       0.02080498 0.15319496 0.031282756 0.14037463
000030 59 16 2a 3e 96 bf a1 3e 7b be 96 3c 06 9a 0d 3d
       0.16610087 0.3159148 0.018401375 0.034570716
000040 25 71 9e 3c 6a aa 49 3c 57 43 f6 3c 03 af 2d 3c
       0.01934106 0.012308696 0.030061407 0.010600808
000050 60 52 16 3d fc d4 1a 3d a7 6c c2 3c 08 f3 da 3d
       0.036699653 0.037800774 0.02373345 0.10690886
000060 07 e5 4c 3c 79 0d 62 3c b3 12 33 3d c2 e3 2e 3d
       0.012505776 0.013797157 0.043719005 0.042697676
000070 b2 52 29 3d 4a d8 d1 3e b6 15 13 3c fe a9 23 3c
       0.04133863 0.40985328 0.008977344 0.00998926
000080 ef b9 20 3c cb 8b b6 3c ca fc cd 3b e1 b2 ed 3c
       0.009809955 0.022283455 0.0062862383 0.02901596
000090 e8 8e aa 3c f4 c7 87 3d d5 1d ad 3c 94 f2 97 3c
       0.020820096 0.06629935 0.02113239 0.018548287
0000a0 57 e4 31 3d cb 37 b2 3c 01 ac b4 3c 71 fb f5 3c
       0.043430652 0.02175512 0.022054674 0.030027123
0000b0 b9 db a1 3c eb e0 c5 3b ae 92 62 3c 42 72 5f 3c
       0.019758092 0.006038775 0.0138289165 0.013638081
0000c0 14 df 14 3c ca bb 8b 3c 85 97 1a 3c 1c 82 0e 3c
       0.009086389 0.017057318 0.009435539 0.008698013
0000d0 d1 08 27 3d 3b 9c c3 3d 22 8d 7f 3c b5 2f a4 3c
       0.040779892 0.09551283 0.0155976135 0.02004228
0000e0 07 bf 21 3d f4 2a 4e 3c 6b 4a 9b 3c 89 b6 11 3d
       0.03948882 0.012583483 0.018956384 0.03557447
0000f0 97 e1 ad 3c 75 23 23 3e 61 ad 0f 3d 0a c2 f7 3c
       0.021225734 0.15931495 0.035077456 0.030243892

0.encoder.BR2.bn.weight f4 [64]
000000 23 a0 61 3f ef eb 1e 3f de 33 d7 3e ac 15 1a 3f
       0.88134974 0.62078756 0.4203176 0.6018932
000010 ea 11 3a 3f 40 4f 42 3f 18 c7 ee 3e 6f 29 1d 3f
       0.72683585 0.75902176 0.4663627 0.6139135
000020 4f 75 28 3f 17 e0 0d 3f a2 dd 12 3f 2d b7 1f 3f
       0.65804 0.5542006 0.57369435 0.6238888
000030 68 d8 13 3f b5 03 4b 3f 74 53 14 3f 70 a5 51 3d
       0.57752085 0.7930253 0.5793984 0.051183164
000040 d2 d4 51 3e 39 b8 f4 3e ac 90 34 3f 0a 07 2d 3f
       0.20491341 0.477968 0.7053325 0.67588866
000050 aa 33 41 3f d9 13 4f 3f a3 30 75 3f e0 a6 68 3f
       0.7546946 0.8088966 0.9577734 0.9087963
000060 16 de 22 3f 44 e9 26 3f a2 a6 ac 3e df 5e 29 3f
       0.63620126 0.65199685 0.3372088 0.66160387
000070 0c 9b 48 3f 2c 68 e5 3e aa 8b d0 3f ef b7 15 3f
       0.7836158 0.4480604 1.6292622 0.58483785
000080 75 32 5c 3f 16 c8 31 3f 85 cb 8f 3f 12 89 7e 3f
       0.8601449 0.6944593 1.1233984 0.994279
000090 96 4f 3e 3f ac 4f 10 3f 3e b6 9f 3f 7a 53 6d 3f
       0.7434019 0.5637157 1.2477491 0.927055
0000a0 1a 63 98 3f c0 d5 55 3f 1c d4 4a 3f a3 85 0b 3f
       1.1905243 0.8352928 0.79229903 0.5450079
0000b0 15 1d e1 3e ea 44 49 3f 51 55 34 3f 02 de 44 3f
       0.439675 0.7862078 0.7044268 0.7690126
0000c0 9c b7 04 3f 8f e5 3d 3f d3 fd 99 3f d2 50 27 3f
       0.51842666 0.74178404 1.2030586 0.65357697
0000d0 32 86 35 3f 89 7d f0 3e 6d 46 81 3f b4 62 28 3f
       0.7090789 0.46970776 1.0099617 0.6577561
0000e0 fc 92 43 3f 58 b4 16 3f a7 c0 28 3f c1 fc 60 3f
       0.76396155 0.5886893 0.65918964 0.8788567
0000f0 25 d7 5b 3f a9 bd 07 3f 30 76 5e 3f 70 75 67 3f
       0.8587516 0.53023773 0.8689909 0.9041357

0.encoder.BR3.bn.bias f4 [144]
000000 2e f7 15 81 d8 30 2c 80 14 0b bf 80 e9 e0 99 bd
       -2.754432e-38 -4.058284e-39 -1.7544554e-38 -0.07513601
000010 ba 1f 46 be a4 a3 0e be d2 a1 42 02 91 19 ec bd
       -0.1934804 -0.13929611 1.4299309e-37 -0.11528314
000020 9c cf ea 80 d8 10 05 82 19 07 81 3e c2 4d 3d 3e
       -2.1563982e-38 -9.776131e-38 0.25200728 0.18486694
000030 90 b5 94 80 c4 29 21 80 e4 4d 29 80 c0 81 22 81
       -1.3656786e-38 -3.045554e-39 -3.793197e-39 -2.9847792e-38
000040 46 02 09 81 b4 0b 92 80 aa 15 31 be b8 84 12 80
       -2.5164557e-38 -1.3412181e-38 -0.1729342 -1.70065e-39
000050 a0 d0 66 80 03 89 f1 81 80 30 95 80 98 da 5c 80
       -9.442061e-39 -8.872602e-38 -1.3700887e-38 -8.527282e-39
000060 53 fc 4a be 62 61 9e be d0 ac 18 80 18 c6 41 80
       -0.19822817 -0.30933672 -2.266045e-39 -6.04037e-39
000070 ee 63 ea bc 98 98 38 82 2f 33 bf 81 c5 82 24 81
       -0.028612103 -1.3561977e-37 -7.0235764e-38 -3.0215865e-38
000080 c4 95 7d 80 12 41 d4 81 09 eb 6c bd 54 b0 29 80
       -1.1533163e-38 -7.796987e-38 -0.057841334 -3.82851e-39
000090 9b c1 57 81 c0 e6 62 81 00 ed 48 80 ae b1 92 3d
       -3.9628168e-38 -4.16752e-38 -6.697175e-39 0.07162796
0000a0 4f 23 e3 3e ac dd 97 80 cf 19 91 bb fe 65 0c 01
       0.44362876 -1.3946681e-38 -0.0044281255 2.5787115e-38
0000b0 8d 2d c5 bd 8d ed f6 01 50 e1 56 80 34 3e 4d 80
       -0.09627829 9.0706997e-38 -7.97868e-39 -7.093647e-39
0000c0 2c 53 bc be f5 16 b5 be c8 23 6f 3d bb 6a a0 be
       -0.36782205 -0.35369077 0.058383733 -0.3133143
0000d0 cc b8 13 80 38 8e 6c 80 86 1c a2 3d f1 4a 65 be
       -1.811167e-39 -9.969252e-39 0.07915597 -0.22391869
0000e0 1a dd 28 3e 9a e5 0b bf ab 9f 86 be e4 c1 86 3d
       0.16490594 -0.5464722 -0.26293692 0.065799505
0000f0 06 d5 31 01 2e 45 e5 bc 02 d0 2e be 34 0a 1f 80
       3.2662602e-38 -0.027987089 -0.17071536 -2.85056e-39
000100 1d 0d df bc a0 81 11 80 1e b4 02 81 b2 75 6a 3e
       -0.027227933 -1.607704e-39 -2.4006457e-38 0.2289646
000110 30 de 12 80 6a 1b 99 be 34 ad 2f 80 14 c5 2b be
       -1.732745e-39 -0.29903728 -4.378402e-39 -0.16774398
000120 ad 44 00 3e 76 d5 13 be 2e 69 f3 be fe eb 4f be
       0.12526198 -0.14436898 -0.47541183 -0.20304868
000130 e6 86 53 81 6a af d1 bd a8 b7 97 3d 92 e9 89 be
       -3.8851364e-38 -0.10238536 0.074080765 -0.26936013
000140 30 8b 97 3d e7 29 99 be 7e d6 b6 3d 7d 99 66 be
       0.07399595 -0.2991478 0.0892763 -0.22519489
000150 7d c0 95 3e b0 4b 39 80 bf 7b 8d 3c 7e 78 22 3e
       0.2924842 -5.261775e-39 0.01727092 0.15866277
000160 05 39 0b 82 4a 37 d7 be 00 43 0d 80 0c 2e 11 3e
       -1.0228471e-37 -0.4203437 -1.217897e-39 0.14177722
000170 5a a2 17 3f 15 bd fb bb 07 31 28 bd 27 04 3a be
       0.59232104 -0.0076824524 -0.04106238 -0.18165646
000180 bc 56 23 80 d0 0b f8 80 50 ec 02 80 c4 0a 13 80
       -3.245357e-39 -2.277944e-38 -2.68444e-40 -1.748736e-39
000190 40 4a 94 80 1b 0f 96 81 90 d2 a8 be d0 76 39 80
       -1.361829e-38 -5.5122973e-38 -0.32973146 -5.277245e-39
0001a0 6f e1 d5 3e 70 45 db 3e dd c6 97 3d ba 3c 23 be
       0.41773555 0.42826414 0.07410977 -0.15941134
0001b0 d0 86 0b 80 db c2 05 bf 9e cf bf be a2 92 30 3d
       -1.058552e-39 -0.5225045 -0.37463087 0.04310859
0001c0 75 eb 6d be c0 49 af 3e ae d6 3b 3e 94 d8 be be
       -0.23234351 0.34235954 0.18343613 -0.3727461
0001d0 09 83 d7 be d2 91 ee be 0c a4 97 80 8f 47 f3 bc
       -0.4209216 -0.46595627 -1.3926009e-38 -0.029697208
0001e0 a4 2b e0 80 1f 84 16 bf e8 5f 9b be 4e c4 82 be
       -2.0586806e-38 -0.5879535 -0.30346608 -0.25540394
0001f0 cc 29 86 3c 4e b0 5a bd 58 d7 06 80 b4 34 0b 80
       0.016377352 -0.053390794 -6.28264e-40 -1.029097e-39
000200 e8 6a 75 80 0d ae 49 be 11 b7 03 80 80 d9 37 81
       -1.0783104e-38 -0.19695301 -3.41178e-40 -3.376784e-38
000210 a0 92 15 80 8c b6 01 bf 49 56 11 be b4 b7 76 80
       -1.981145e-39 -0.5066917 -0.14193071 -1.0902489e-38
000220 d6 7d 9e bd ea e6 47 bd f8 83 24 80 20 9d 49 be
       -0.07738845 -0.0488042 -3.35342e-39 -0.19688845
000230 10 f4 3d 80 3e 06 8a bd 2b cb 4a bd 78 39 03 80
       -5.689518e-39 -0.06739472 -0.049510162 -2.96122e-40

0.encoder.BR3.bn.running_mean f4 [144]
000000 55 c2 3b 3f 3b 4e 00 3f 60 f8 5c 3e b0 2d 33 3e
       0.733434 0.5011937 0.21579123 0.17497897
000010 a5 cc 81 3e f7 8b a0 3e f8 4a 70 3f cf 68 cb 3e
       0.25351444 0.31356785 0.93864393 0.397284
000020 17 65 2a 3e 3d ac 1c 3f 17 e8 f4 3e 69 06 da bd
       0.16640125 0.61200315 0.4783332 -0.10645754
000030 dc 8b 27 3f c8 e7 c9 3e 7a 84 df 3e ee 9f 3a 3f
       0.65447783 0.39434648 0.4365576 0.72900283
000040 ec 95 27 3d b6 4f 31 3f 02 fa 0f be e7 86 d8 3e
       0.04091446 0.69262254 -0.14060214 0.42290422
000050 d7 12 a9 3e be b3 ba 3d 45 d1 b5 3e 07 56 ed 3e
       0.33022186 0.09116314 0.35511222 0.46354696
000060 10 03 d3 3e 45 07 0c 3f 29 53 38 3e a8 53 e6 3e
       0.41213274 0.5469859 0.18000473 0.449857
000070 56 e1 5b 3e de 87 3b 3e a6 75 ed 3e 4b b3 58 3e
       0.21472678 0.18313548 0.4637882 0.21162145
000080 96 d4 d7 3e 60 17 3b 3f 45 02 8b 3e a4 d3 30 3f
       0.42154378 0.7308254 0.2715017 0.6907294
000090 d9 02 ae 3e d3 dc 55 3f d9 fb 9d 3e ab 78 f7 be
       0.33986548 0.83540076 0.30856207 -0.4833425
0000a0 b9 bc 1a 3f 0f 20 2a 3f cc cf 55 3e 70 21 82 3e
       0.6044422 0.6645517 0.2088005 0.25416136
0000b0 7e 37 5a 3e d8 ff 5a 3f 89 49 79 3e c0 b9 08 3f
       0.21310231 0.85546637 0.24344458 0.5340843
0000c0 68 d7 08 3e a1 63 cc 3e 32 9b 1b 3e 6a e3 05 be
       0.13363421 0.3991976 0.15195921 -0.13075033
0000d0 04 00 00 00 aa 4e 03 00 fb 7b 8a 3d c2 3f 87 bc
       6e-45 3.03726e-40 0.06761929 -0.016509894
0000e0 71 32 5b 3d 03 c2 7f 3d db b6 17 3e 58 c9 15 3e
       0.0535149 0.062440883 0.14815848 0.14627588
0000f0 04 00 00 00 07 30 a2 3c b4 33 dc 3a f0 12 06 00
       6e-45 0.019798292 0.0016800077 5.57806e-40
000100 3b d9 40 3e 7c 1c 19 00 c0 88 05 00 43 60 28 3c
       0.18832867 2.306106e-39 5.08234e-40 0.010276857
000110 0a e1 18 00 f9 83 07 3e ad 39 0f 00 8c 2e 7e 3c
       2.284781e-39 0.13233937 1.398223e-39 0.015514027
000120 dc 64 89 3e 44 4e ae bd fb 25 09 3d c9 a5 82 3e
       0.26834762 -0.08511022 0.033483487 0.2551711
000130 04 00 00 00 fd f5 28 3e d3 ff 18 bd 92 10 19 3e
       6e-45 0.16500087 -0.037353348 0.14947727
000140 a5 eb 28 3e 86 fe b4 3c fd 6d 05 3e 7b 56 30 3e
       0.16496141 0.022094022 0.13030238 0.1722049
000150 45 a7 e8 3d a5 92 18 00 47 f1 29 3e 72 78 11 3e
       0.11360029 2.256658e-39 0.16595946 0.14206102
000160 6c 1c 12 00 c1 91 43 3e 04 00 00 00 be 18 95 3d
       1.663235e-39 0.1909857 6e-45 0.0728011
000170 ba b7 47 3d 89 f7 39 3e fb ec be bd 79 a0 02 be
       0.0487592 0.18160833 -0.09322544 -0.12756528
000180 c6 00 17 00 88 3d 07 00 5a a9 09 00 91 20 03 00
       2.112494e-39 6.64922e-40 8.87271e-40 2.87189e-40
000190 71 18 00 00 83 b6 1f 00 83 a1 ac 3d e7 c9 03 00
       8.768e-42 2.912373e-39 0.084292434 3.47935e-40
0001a0 a2 f9 ef bc 77 07 bf 3d f7 c5 12 3d 49 0a 6b 3e
       -0.029293839 0.09327596 0.035833325 0.22953142
0001b0 72 f7 02 00 f4 1a 65 3e f9 d8 69 3e a7 6a c4 3d
       2.72438e-40 0.22373563 0.22836675 0.09590655
0001c0 1d 2f e1 3d aa 6d 21 3e 9a 7b 9b 3e 48 94 78 3e
       0.10995314 0.1576449 0.30367738 0.24275315
0001d0 bf 81 40 3e d6 7e a5 3e e1 d1 03 00 70 9e a6 3e
       0.18799494 0.3232333 3.50797e-40 0.32542753
0001e0 23 2a 00 00 3f fc 80 3e ab 16 eb 3d fc ac 92 bd
       1.5116e-41 0.25192448 0.11478933 -0.071619004
0001f0 c8 97 44 3d 41 86 75 3e 02 d1 04 00 68 bc 1b 00
       0.047996312 0.23976995 4.4232e-40 2.547146e-39
000200 ed 91 03 00 11 f3 e8 3d ef 1f 02 00 32 70 15 00
       3.27855e-40 0.11374486 1.95127e-40 1.968794e-39
000210 c5 50 17 00 72 b0 d2 3d 79 b8 55 3e 88 c8 1e 00
       2.141191e-39 0.102875605 0.20871152 2.827002e-39
000220 e2 b9 c2 3b 4e da b2 3d 07 29 18 00 6d 2b a8 3d
       0.005942569 0.087330446 2.21877e-39 0.08211408
000230 af 2c 00 00 af f9 50 3e 32 26 74 bc 15 d3 09 00
       1.603e-41 0.20407747 -0.014901685 9.02241e-40

0.encoder.BR3.bn.running_var f4 [144]
000000 44 65 07 3e 09 0b 84 3e 4b 23 6f 3d 55 11 80 3d
       0.13222224 0.2578967 0.058383267 0.06253306
000010 a0 08 a7 3d e6 19 81 3d d7 bd c0 3e d7 75 12 3e
       0.08155942 0.06303768 0.37644836 0.14302765
000020 a8 72 cc 3d 6a ac 4b 3e c9 bc 0a 3e 2b 56 9c 3e
       0.099828064 0.1988999 0.13548578 0.3053449
000030 f7 db 1d 3e d6 48 fc 3d 46 19 ad 3d 38 03 b5 3e
       0.15415941 0.1231858 0.08452086 0.35354018
000040 39 f0 cb 3d ad 59 ad 3d c6 42 9c 3e 07 3d 85 3e
       0.09957928 0.0846437 0.30519694 0.26023123
000050 4e 72 53 3d 6e 9b 41 3d 9f 7f 98 3d 46 66 1f 3e
       0.05162268 0.04726737 0.07446217 0.15566358
000060 54 96 ff 3d 44 a7 6d 3e ad da 6e 3d fd 15 ae 3e
       0.12479845 0.23208338 0.058314014 0.3400115
000070 9e 37 1a 3d 34 0f d0 3d 47 de 68 3e 75 27 5c 3d
       0.037650697 0.1015915 0.22741042 0.053748567
000080 a6 e1 d8 3d 96 21 c0 3e 9b 22 5c 3d 73 40 56 3e
       0.10589914 0.37525624 0.05374394 0.20923023
000090 06 44 ac 3d d4 8e 75 3e 77 db 40 3d b5 a7 da 3d
       0.08411412 0.23980266 0.047084298 0.10676519
0000a0 fb 0f 8f 3e 73 32 56 3e 60 90 ea 3c 02 9a a7 3d
       0.2794188 0.20917682 0.028633296 0.081836715
0000b0 0b 9c 1b 3d 6b fb 86 3e b9 3f 09 3d 96 97 3d 3e
       0.03799061 0.26363692 0.033508036 0.18514857
0000c0 ea 1a 39 3c ea bc b2 3c d7 a8 66 3c 98 8e 06 3c
       0.011297921 0.021818597 0.0140783405 0.008212708
0000d0 04 00 00 00 04 00 00 00 db 31 3b 3b 23 53 b9 3a
       6e-45 6e-45 0.0028563652 0.0014139157
0000e0 58 76 68 3b 61 3e 8a 3b 49 2a 98 3c 22 6f 94 3c
       0.003547093 0.004218862 0.01857485 0.018119399
0000f0 04 00 00 00 2c 6d a8 3b 05 c8 9e 3a 04 00 00 00
       6e-45 0.0051399674 0.0012114054 6e-45
000100 e9 38 c3 3c 04 00 00 00 04 00 00 00 34 00 93 3b
       0.023830848 6e-45 6e-45 0.004486108
000110 04 00 00 00 40 ad e7 3b 04 00 00 00 29 2c ca 3a
       6e-45 0.0070702136 6e-45 0.0015424538
000120 a0 88 ad 3d 19 68 08 3d 66 82 29 3b 28 75 6d 3d
       0.08473325 0.0333024 0.0025865077 0.057973057
000130 04 00 00 00 d4 8a 00 3d 17 ec 80 3c 46 d2 b6 3c
       6e-45 0.031382397 0.015737576 0.022317063
000140 4f fd d4 3c fe ab db 3a 6b 35 06 3d 18 3f 18 3d
       0.025999693 0.0016759632 0.032765787 0.037169546
000150 5f 7b 09 3c 04 00 00 00 29 8e 60 3c 9a 45 14 3d
       0.00839123 6e-45 0.013705769 0.03619919
000160 04 00 00 00 19 94 bb 3c 04 00 00 00 04 f6 b6 3b
       6e-45 0.022897767 6e-45 0.0055835266
000170 c5 62 b6 3c 06 f1 03 3d bf 72 a2 3b ef 7c 84 3c
       0.022263894 0.03221228 0.0049575265 0.016172854
000180 04 00 00 00 04 00 00 00 04 00 00 00 04 00 00 00
       6e-45 6e-45 6e-45 6e-45
000190 04 00 00 00 04 00 00 00 1a f4 da 3c 04 00 00 00
       6e-45 6e-45 0.026727725 6e-45
0001a0 a1 87 83 3d 14 1c 7e 3c dd 4b c5 3a 4a 1f 1d 3d
       0.064223535 0.015509624 0.0015052516 0.038359918
0001b0 04 00 00 00 bc 7a 20 3d e6 be 2d 3d 44 35 98 3b
       6e-45 0.03917955 0.042418383 0.0046450216
0001c0 19 d1 0b 3c 18 70 10 3c 65 67 f0 3c 58 d2 1d 3d
       0.0085337395 0.008815788 0.029346177 0.038530678
0001d0 b5 6d c6 3c 00 e2 b9 3d 04 00 00 00 65 54 73 3d
       0.024222234 0.09076309 6e-45 0.059406657
0001e0 04 00 00 00 e3 c1 4c 3d 45 82 5e 3c a9 56 3e 3b
       6e-45 0.049989592 0.013580863 0.0029043353
0001f0 ca 96 07 3c 95 ca 23 3d 04 00 00 00 04 00 00 00
       0.008275697 0.03998812 6e-45 6e-45
000200 04 00 00 00 a9 96 9d 3c 04 00 00 00 04 00 00 00
       6e-45 0.01923688 6e-45 6e-45
000210 04 00 00 00 f1 8f 2b 3c c9 f5 d5 3c 04 00 00 00
       6e-45 0.01047133 0.026118176 6e-45
000220 9c 77 00 3a 51 3f bf 3b 04 00 00 00 dc b0 11 3c
       0.00049006357 0.0058364053 6e-45 0.008892264
000230 04 00 00 00 4b 09 ba 3c d8 d5 a9 3a 04 00 00 00
       6e-45 0.02270951 0.0012957407 6e-45

0.encoder.BR3.bn.weight f4 [144]
000000 2c 82 46 80 90 21 17 00 2c 28 46 80 b6 34 c8 3e
       -6.475182e-39 2.124256e-39 -6.442896e-39 0.39102715
000010 8d 8d 8e 3e a2 6f 0e 3e 34 ba 85 01 b7 ac 77 3e
       0.2784237 0.13909772 4.912367e-38 0.24186979
000020 44 12 48 00 30 a3 dc 00 dd fa 6f 3e 20 03 af be
       6.618708e-39 2.026235e-38 0.2343554 -0.34182072
000030 90 7c 14 80 1c 4d 07 80 70 e3 05 00 a0 cb 86 00
       -1.881395e-39 -6.7051e-40 5.40767e-40 1.2379003e-38
000040 54 e8 28 00 32 cf 2e 01 c0 f1 a9 3e 78 eb 06 00
       3.756763e-39 3.2107408e-38 0.33192253 6.35483e-40
000050 20 d3 1f 80 b4 1f a9 80 48 26 0c 00 f4 b3 00 00
       -2.922638e-39 -1.5531572e-38 1.115759e-39 6.4555e-41
000060 87 c8 61 3e a6 6f ac 3e b4 31 04 80 58 dd 09 80
       0.22049151 0.3367893 -3.85172e-40 -9.05923e-40
000070 1f d8 23 3e 26 74 40 01 88 b3 2a 80 58 87 28 01
       0.16000412 3.5348163e-38 -3.921495e-39 3.095383e-38
000080 dc 3d 02 80 f4 d8 20 00 ad a8 9f 3e f4 a2 00 00
       -2.05862e-40 3.016564e-39 0.31183377 5.8457e-41
000090 2e c7 0a 01 44 77 0a 80 00 ac 1b 80 d3 c6 bc 3e
       2.54895e-38 -9.6114e-40 -2.54126e-39 0.3687044
0000a0 75 dc cc 3e 28 ac 11 00 42 84 b1 3d e0 ce f4 00
       0.40011945 1.622961e-39 0.08667804 2.2482074e-38
0000b0 e8 1d 2c 3e 45 34 ee 81 2c bf 29 80 80 3a 3e 00
       0.16808283 -8.7502395e-38 -3.833835e-39 5.714787e-39
0000c0 33 07 2e 3f b3 9e eb 3f b0 87 59 3f 6e 7c 48 3f
       0.67979735 1.8407806 0.8497267 0.78314865
0000d0 ba cf 05 00 d2 e7 1d 00 38 ef 93 3e 4e 43 2f 40
       5.33696e-40 2.746391e-39 0.28893447 2.738483
0000e0 b1 7e 2a 3f c5 e7 13 3f 67 50 d3 3e 2d 8b 07 3f
       0.66599566 0.5777553 0.4127228 0.5294674
0000f0 3a 38 15 00 8d 7c 39 3f 9a c0 47 3f 01 3c 1a 00
       1.948716e-39 0.72455674 0.7802826 2.409248e-39
000100 f1 02 1d 3f 44 aa 20 00 5d d4 03 00 79 c3 e5 3f
       0.61332613 2.999816e-39 3.51688e-40 1.7950279
000110 20 ac 0e 80 c9 43 16 3f 48 24 19 00 29 4e dc 3e
       -1.347444e-39 0.5869718 2.308903e-39 0.4302838
000120 12 d9 44 3f 39 33 f9 3f 17 8e 02 3f 85 c2 5a 3f
       0.76893723 1.9468757 0.5099806 0.85453063
000130 27 8e 18 80 88 03 13 3f a4 af dc 3f 9e 4b ea 3e
       -2.255047e-39 0.57427263 1.7241101 0.45760816
000140 90 6d e1 3e 3c 85 c3 3e f3 12 63 3f 15 4e 1a 3f
       0.44028902 0.38187587 0.8870079 0.60275394
000150 65 80 e7 3e 08 63 0b 80 38 b4 ed 3e 07 a6 d2 3f
       0.45215145 -1.045716e-39 0.46426558 1.6456918
000160 9b 0b 0b 80 6a 29 43 3f b7 61 16 00 df 78 a1 3e
       -1.014354e-39 0.7623507 2.055434e-39 0.3153753
000170 8f 9c 8a 3f 2e ce 05 3f c3 c4 df 3e 1f 43 82 3f
       1.0829028 0.5226773 0.43704805 1.0176734
000180 91 ca 07 80 c5 52 0e 80 38 1c 0f 80 17 04 21 00
       -7.15516e-40 -1.315389e-39 -1.387655e-39 3.032039e-39
000190 28 4b 0c 80 ca 7d 17 80 f9 ca e5 3f 23 d1 05 00
       -1.128987e-39 -2.157341e-39 1.7952567 5.34202e-40
0001a0 49 f5 df 3f 1e 61 9a 3f 88 59 50 3e 3c 96 13 3f
       1.749673 1.2060888 0.20346653 0.57651114
0001b0 f2 c3 0c 80 2d ad 3f 3f e8 cf 46 3f d9 1f 3a 3e
       -1.172318e-39 0.7487362 0.7766099 0.18176211
0001c0 d8 f8 1b 3f 6d 1a 43 3f 57 cc 02 40 85 f9 02 3f
       0.6092658 0.762122 2.043722 0.51161987
0001d0 d1 f8 de 3e 65 14 71 3f 05 56 08 00 73 62 6b 3f
       0.43549207 0.94171745 7.65542e-40 0.91947097
0001e0 6d ef 0a 00 33 54 80 3f 09 12 0a 3f 05 47 db 3e
       1.004245e-39 1.0025696 0.5393377 0.4282762
0001f0 27 3c 48 3e 2a 85 0e 3f 77 59 15 00 a1 d6 11 00
       0.19554196 0.5567194 1.96064e-39 1.638198e-39
000200 44 23 11 80 df 1b d9 3e a5 c8 0e 00 42 07 0c 80
       -1.573854e-39 0.42404076 1.357675e-39 -1.10463e-39
000210 2e 09 0e 80 3e a1 cc 3e 50 14 38 3f 38 8e 12 80
       -1.28899e-39 0.39966768 0.71905994 -1.704057e-39
000220 84 66 d9 3e b6 cc 19 3f 6c f8 0e 80 ad bb 58 3e
       0.42461026 0.6007799 -1.374814e-39 0.21165343
000230 3e 84 23 00 bf f7 11 3f c1 38 d9 3e bd a8 0a 00
       3.261682e-39 0.57018656 0.42426112 9.78887e-40

0.encoder.classifier.conv.weight f4 [2, 144, 1, 1]
000000 93 90 00 00 14 9c 00 80 01 95 00 80 58 e2 95 bd
       5.1863e-41 -5.599e-41 -5.3453e-41 -0.07318562
000010 79 df 9a bb 8c c2 b5 3c e1 5f 00 00 03 fc 10 bc
       -0.004726347 0.022187494 3.4395e-41 -0.008849147
000020 96 45 00 00 91 11 00 80 ca 50 2b bd 91 fb 1c bd
       2.4963e-41 -6.302e-42 -0.041825093 -0.03832585
000030 85 1c 01 00 3a 24 00 80 3a 45 01 00 d2 a9 00 80
       1.02066e-40 -1.2996e-41 1.1667e-40 -6.092e-41
000040 de dd 00 00 cc 57 00 00 66 39 8b bc 42 14 00 80
       7.9591e-41 3.1496e-41 -0.016995143 -7.267e-42
000050 31 44 01 00 ef 01 01 80 85 74 00 80 7e a0 00 00
       1.16298e-40 -9.2529e-41 -4.18e-41 5.7574e-41
000060 36 d9 b2 bb f6 f0 1f bd 9c b5 00 80 d2 f4 00 80
       -0.0054580225 -0.039048158 -6.5149e-41 -8.7825e-41
000070 7d ba 6e bc 16 4f 00 80 96 1d 00 00 b3 03 01 80
       -0.014570829 -2.837e-41 1.0613e-41 -9.3163e-41
000080 0c 52 01 80 90 8b 00 80 c0 68 f8 3a 1f 07 00 80
       -1.21268e-40 -5.0066e-41 0.0018952116 -2.555e-42
000090 dc 8c 00 80 67 64 00 80 63 91 00 00 cd af 45 3d
       -5.0531e-41 -3.6018e-41 5.2155e-41 0.04826336
0000a0 89 80 b3 3c 77 70 01 80 20 8e 58 bc 36 3c 00 00
       0.021911876 -1.3218e-40 -0.013217479 2.16e-41
0000b0 7f 15 7f 3c 8a 39 00 80 01 16 00 00 84 ed 00 00
       0.01556909 -2.0641e-41 7.894e-42 8.5205e-41
0000c0 89 26 8a 3d 05 cd 27 3b a4 b6 9c 3d 07 70 a4 3c
       0.06745631 0.002560438 0.076520234 0.02007295
0000d0 e8 36 00 80 af 38 00 80 90 d9 0b 3d cb e9 d0 3b
       -1.9697e-41 -2.0334e-41 0.03414303 0.0063755265
0000e0 0a 86 47 3d f3 0f 39 3d 2f 04 34 bc f2 40 4f 3d
       0.048711814 0.045181226 -0.010987326 0.050599046
0000f0 a0 35 00 00 a3 a7 b7 bd 4e 02 a3 bc 8b a4 00 00
       1.9237e-41 -0.08967521 -0.01989856 5.9027e-41
000100 3b 66 2c 3d a2 61 01 00 b8 45 00 80 8c fd 6b 3c
       0.042089682 1.2686e-40 -2.501e-41 0.014403712
000110 5b 92 00 00 83 f6 79 3d da 3f 01 80 07 b1 73 3c
       5.2502e-41 0.061026108 -1.14741e-40 0.01487375
000120 a8 d3 63 bc 77 4e 0a bc a9 08 b8 bc 29 36 48 3c
       -0.013905443 -0.008441559 -0.022465067 0.012219944
000130 8d 9b 00 00 a4 f3 10 bd 39 ff 40 3c c1 05 20 3d
       5.5801e-41 -0.035388604 0.0117796 0.039067987
000140 2d 9e 8e bb 42 58 ea 3c 2d 02 73 3d 0c e0 17 3d
       -0.004352352 0.028606538 0.059328247 0.037078902
000150 48 7a 43 bd d8 a5 00 80 22 4a 30 bd e3 9c 1c be
       -0.04772404 -5.9494e-41 -0.04303945 -0.15294223
000160 dc 45 00 00 52 2e 9a bd a2 3a 00 80 01 82 a1 bc
       2.5061e-41 -0.07528366 -2.1033e-41 -0.019715311
000170 a9 7a 11 3e fb 22 b2 bc 02 22 bc bc 6d fb b0 3c
       0.14206947 -0.021745196 -0.022965435 0.021604264
000180 be 9d 00 80 dc 36 00 80 6b 71 00 00 8a 9c 00 80
       -5.6587e-41 -1.968e-41 4.0687e-41 -5.6156e-41
000190 cc 9d 00 00 7e 21 01 00 b7 e9 3e bd a1 26 00 00
       5.6607e-41 1.0385e-40 -0.046609607 1.3857e-41
0001a0 a4 ce e4 3c a1 99 0a bd 67 66 5b 3c a3 33 90 bc
       0.027930565 -0.03383792 0.013391114 -0.017602747
0001b0 87 a2 00 80 a2 04 57 bc d8 48 85 bc 6a c2 00 3c
       -5.8304e-41 -0.013123663 -0.016270086 0.007858852
0001c0 97 9d 88 bd 8a 98 f6 3c 48 84 e9 39 79 31 c5 3c
       -0.06670683 0.030102033 0.0004453978 0.024071442
0001d0 6d e8 c9 3c 44 37 a1 3c f6 43 00 80 f9 5c 5a bd
       0.024646962 0.019679673 -2.438e-41 -0.053311322
0001e0 ae 41 00 80 f3 4d bc 3c 33 6a d0 bc 2e 9e 0d 3d
       -2.3561e-41 0.022986388 -0.025441265 0.03457468
0001f0 a9 1b b4 bc 08 19 6a bd 3a 3c 00 00 53 61 01 00
       -0.021985846 -0.057152778 2.1605e-41 1.26749e-40
000200 d2 2f 00 00 b4 4b d7 bc 36 c6 00 80 fc 80 00 80
       1.7155e-41 -0.026281215 -7.1105e-41 -4.6271e-41
000210 4d 12 00 80 6b d5 e8 3c 3e fe e9 bc 85 3f 00 80
       -6.565e-42 0.028422078 -0.028563615 -2.2787e-41
000220 cc 23 01 3d 33 31 cc bc 31 f5 00 00 ed c8 af 3c
       0.03152828 -0.024925804 8.7958e-41 0.021458114
000230 0a 11 00 00 83 95 76 bc 58 f0 00 bc e8 91 00 00
       6.112e-42 -0.015050295 -0.007869802 5.2341e-41
000240 8d 3e 00 00 34 9b 00 00 21 0b 00 80 11 fa 4d bb
       2.2439e-41 5.5676e-41 -3.992e-42 -0.0031429569
000250 d7 29 28 bd c7 f8 0b bc 3e fa 00 00 8c d6 0e 3c
       -0.041055527 -0.0085432 8.977e-41 0.008718144
000260 68 2a 01 80 b9 40 00 00 0c 31 2d bd 67 61 29 bd
       -1.07048e-40 2.3218e-41 -0.042283103 -0.041352656
000270 00 01 01 00 4c 11 00 80 16 62 01 80 04 41 00 00
       9.2194e-41 -6.205e-42 -1.27022e-40 2.3323e-41
000280 e4 bc 01 80 95 8d 00 80 4e 0a 17 3d e4 24 00 80
       -1.59597e-40 -5.079e-41 0.03687506 -1.3234e-41
000290 a3 f8 00 00 aa cc 00 80 b9 26 01 00 c4 2a 01 80
       8.9194e-41 -7.342e-41 1.05727e-40 -1.07177e-40
0002a0 29 9c ce 3c a0 88 d2 bc 9a 5f 00 80 e2 60 01 80
       0.025220947 -0.025699914 -3.4295e-41 -1.2659e-40
0002b0 ca 16 b0 3c ce 6d 00 00 1a 56 01 80 f4 10 00 80
       0.021495242 3.939e-41 -1.22723e-40 -6.082e-42
0002c0 7e 06 00 00 62 fd 00 80 0d 23 2f 3d f5 47 00 80
       2.329e-42 -9.0897e-41 0.042758036 -2.5813e-41
0002d0 de 34 00 00 c6 1a 00 00 4d 8a 00 00 d1 27 41 3d
       1.8965e-41 9.604e-42 4.9613e-41 0.047157113
0002e0 e8 92 d4 3c e6 ec 00 80 a5 3a 36 3c 6e 46 00 80
       0.025948957 -8.4983e-41 0.01112238 -2.5265e-41
0002f0 cf 5a 4e bc 41 17 00 80 c4 1e 01 80 6a 2c 01 00
       -0.012594893 -8.342e-42 -1.02872e-40 1.07768e-40
000300 c7 8f 4e bd b4 72 46 3e e7 1c 0d 3d 60 6b 7c bd
       -0.050430086 0.19379693 0.03445139 -0.06162584
000310 91 2a 01 00 2f 26 01 00 34 ea 39 bd 31 c6 37 be
       1.07105e-40 1.05533e-40 -0.04538937 -0.17946698
000320 ee b5 0e 3d 71 be 63 bd fd 12 81 3d 2b 9c 3c 3d
       0.03484147 -0.05560154 0.0630245 0.04604737
000330 92 65 00 80 17 39 05 3d 6f aa af bd 2d 25 01 80
       -3.6437e-41 0.03252515 -0.085774295 -1.05172e-40
000340 9d a3 6d bd cb 24 00 00 01 8e 01 00 b6 f5 29 3e
       -0.058017362 1.3199e-41 1.42777e-40 0.16597638
000350 33 52 01 80 74 97 98 bd 2b 04 01 80 27 83 4a bd
       -1.21323e-40 -0.074507624 -9.333e-41 -0.049441483
000360 e2 82 55 3d 43 7e ed bd 2e 80 92 3d 9e 0e 60 bd
       0.052126773 -0.11596348 0.071533546 -0.05470144
000370 b0 19 00 80 76 65 41 3d 9f e2 30 3e c1 dc 2d bd
       -9.215e-42 0.0472159 0.17273949 -0.042446855
000380 71 79 77 3d 6d 3e 40 bd 15 b8 69 3d 96 9b 52 bd
       0.06041855 -0.046934534 0.05706032 -0.05141791
000390 a7 2e 4e 3d 80 3d 00 00 2f 3d 75 bd 2b 25 03 bd
       0.05033746 2.2062e-41 -0.059872802 -0.032017868
0003a0 95 06 00 00 20 ee 45 bd ae a0 00 80 84 ec 72 bd
       2.361e-42 -0.048322797 -5.7641e-41 -0.05930759
0003b0 ec 55 31 3d b4 67 75 3d 27 8f 36 bd f8 df 24 bd
       0.043294832 0.059913352 -0.044570114 -0.040252656
0003c0 9b 61 00 80 ca 6c 01 00 0b 11 00 00 72 3f 00 80
       -3.5014e-41 1.30862e-40 6.114e-42 -2.276e-41
0003d0 d5 8d 00 00 5a 41 00 00 fb d0 25 3e 08 6c 00 80
       5.088e-41 2.3444e-41 0.16193001 -3.8754e-41
0003e0 e5 8c 18 be 83 6b c3 3d 67 21 45 3d a7 b1 4f 3d
       -0.14897497 0.095419906 0.048127558 0.05070653
0003f0 5e 92 01 00 6c d0 6e 3d 0e 02 4c 3d 22 f6 09 bd
       1.44342e-40 0.058304235 0.049806647 -0.033681996

0.encoder.level2.0.BR.bn.bias f4 [48]
000000 59 18 1f bd 55 b6 09 3f fb 30 8b be a4 00 2e 3d
       -0.03884158 0.5379384 -0.27185807 0.04248108
000010 b8 f2 7b 3d e9 aa 0c bf ef 4a 6c be fc aa 21 bf
       0.06151077 -0.5494829 -0.2307546 -0.63151526
000020 42 5d 05 be 91 4a 9c be 8d a8 c2 3e a7 d4 b4 bd
       -0.13023856 -0.3052564 0.3801922 -0.08829623
000030 c2 8e 0f 3e 7a b9 1b bf 1d 06 d7 3e d3 f5 91 3e
       0.14019302 -0.6082989 0.41996852 0.28507861
000040 a4 08 8b bd d7 f5 bc be a1 45 05 be 50 32 c1 3f
       -0.067887574 -0.3690631 -0.13014843 1.5093479
000050 8a 93 85 3e 77 a7 2a bd e1 f9 70 3e a4 40 85 bd
       0.26089126 -0.041663613 0.23532821 -0.0650647
000060 92 09 2b 3e 78 9e 0a 3e f1 7f 88 be 3a 73 2e 3e
       0.1670287 0.13537014 -0.26660112 0.17036143
000070 62 e7 fa 3c 88 b9 37 3e e0 e8 b9 bc cb aa a1 be
       0.03062791 0.17941868 -0.022694051 -0.31575617
000080 6a 1f ad 3e 55 35 ef 3c 53 27 a2 bf 9e a3 fd bc
       0.3381303 0.029200235 -1.2668251 -0.030961808
000090 29 0f 80 be 8e a6 e7 bc d3 ee 9e 3e 30 39 bc 3e
       -0.25011566 -0.028277662 0.31041583 0.3676238
0000a0 92 0d 69 3c 27 0d 3c bd d4 d1 26 3e 25 59 5b 3e
       0.014224427 -0.04591098 0.1629098 0.21420725
0000b0 9b 1a ae 3e 0c 45 2f 3e e6 ef 3a be bf ec 9e 3e
       0.34004673 0.17116183 -0.18255576 0.31039998

0.encoder.level2.0.BR.bn.running_mean f4 [48]
000000 27 00 19 3a 28 29 a3 39 99 c4 1a 39 78 35 34 38
       0.00058365095 0.00031120447 0.00014759823 4.296514e-05
000010 0b 67 e2 b6 f5 24 21 ba 30 65 c3 b8 1d ba 92 b9
       -6.7473206e-06 -0.00061471696 -9.317172e-05 -0.00027985955
000020 89 36 11 b8 cd 04 16 39 b9 d5 0d 39 6c 95 43 b9
       -3.4621484e-05 0.00014306903 0.00013526426 -0.00018652313
000030 33 34 b4 b9 e9 13 dd 38 29 70 01 39 01 89 a4 37
       -0.00034371167 0.0001054181 0.00012344182 1.961412e-05
000040 ed 6b f1 b9 a9 49 ba 39 79 3f 07 3a 49 82 fe b8
       -0.00046047513 0.00035531566 0.00051592995 -0.00012135931
000050 20 f6 19 3a 76 9e ee 37 32 bb 94 ba 86 a5 b5 b9
       0.00058731623 2.84456e-05 -0.0011347292 -0.00034646335
000060 83 f9 c7 b9 39 d0 81 b9 72 b7 da 37 43 79 a4 39
       -0.00038142139 -0.00024759935 2.6073049e-05 0.00031370865
000070 7a d2 86 b7 ef 06 a6 38 d8 bd 81 38 c7 55 52 3a
       -1.6072056e-05 7.916788e-05 6.1865605e-05 0.0008023646
000080 e6 80 05 b8 b5 2c bf 38 15 b3 2d 39 42 15 80 b9
       -3.1829717e-05 9.115917e-05 0.00016565279 -0.000244299
000090 a3 c4 46 3a aa 6c 51 b7 e6 d9 77 b6 e2 a6 15 b8
       0.0007582402 -1.2482671e-05 -3.6932702e-06 -3.567979e-05
0000a0 be 66 54 3a 5b 40 c1 b9 8e 92 6c 38 0f b3 32 39
       0.0008102468 -0.00036859777 5.6403274e-05 0.00017042107
0000b0 a0 af 90 39 cc 71 44 39 90 07 00 b9 0c c2 55 ba
       0.0002759667 0.00018734409 -0.00012209849 -0.00081542204

0.encoder.level2.0.BR.bn.running_var f4 [48]
000000 2b 59 e9 3c 2f 41 ae 3c 16 a7 a9 3c 63 cb a1 3c
       0.028484901 0.021271316 0.020709556 0.019750303
000010 ae d1 97 3c 6f 69 44 3d 45 ae d1 3c 22 b6 03 3d
       0.0185326 0.04795211 0.025595794 0.032156117
000020 50 bb a8 3c 9d 69 9d 3c 88 b2 b2 3c bb 70 8c 3c
       0.02059713 0.0192154 0.021813646 0.017143598
000030 5a 16 c7 3c 2f ef 05 3d 1a 4c ac 3c c7 74 3d 3c
       0.02430265 0.032698806 0.021032382 0.011563486
000040 f9 0c 05 3d 16 63 fa 3c ce c1 3b 3c 77 14 ab 3b
       0.032483075 0.030564826 0.011459781 0.0052209455
000050 71 f5 84 3c 4e 05 67 3c 21 0b 7d 3c 76 26 8e 3c
       0.016230317 0.014100386 0.015444548 0.017352324
000060 c4 42 6e 3c d8 9f 75 3c 67 c2 4a 3d 51 61 b5 3c
       0.014542285 0.014991723 0.049501803 0.02214113
000070 5d 1e 0a 3c c4 df 8e 3c 12 e4 28 3c 91 24 cc 3c
       0.008430091 0.017440684 0.010308282 0.02491978
000080 7a e0 6c 3c 0f 56 8a 3c f0 37 a2 3c 19 37 61 3c
       0.014457816 0.016886739 0.019802064 0.013746046
000090 9a 16 f5 3c dd a8 d5 3c 3f 28 a5 3c d9 ce e0 3c
       0.029918004 0.026081497 0.020160792 0.027442383
0000a0 1a 65 5b 3b 6d 2a 3c 3c 3f f4 a6 3c 11 b1 7e 3c
       0.003347701 0.0114847245 0.020380137 0.015545146
0000b0 70 fe b8 3c d9 c4 69 3c d0 81 de 3c 52 b0 4f 3c
       0.022582263 0.014268124 0.027161509 0.012676315

0.encoder.level2.0.BR.bn.weight f4 [48]
000000 7f 3e 30 3f 6a 3a 9d 3e 84 47 ec 3e 57 b8 d6 3e
       0.6884536 0.3070863 0.46148312 0.41937515
000010 79 c8 cf 3e d7 d4 a8 3f f1 b5 63 3f 7a 57 91 3f
       0.40582636 1.3189954 0.88949496 1.1354821
000020 6d 42 13 3f 14 db a4 3e 19 2f 96 3e 9c 66 c1 3e
       0.5752323 0.32198393 0.29332808 0.37773597
000030 30 cc d8 3e 5e ca e5 3e 69 3e a1 3e 6c e5 74 3e
       0.42343283 0.44880956 0.31492928 0.23915642
000040 4a 35 63 3f b7 0f 4d 3f 9a 84 c3 3e 0d 1a 06 3d
       0.8875319 0.80102104 0.38187104 0.032739688
000050 f8 77 61 3e 5e 86 7b 3e 6a ad e7 3e 97 39 ac 3e
       0.2201842 0.24562976 0.45249492 0.33637688
000060 c1 02 85 3e 52 e5 9d 3e e5 96 75 3f 9f e5 5f 3e
       0.25978664 0.3083902 0.9593337 0.21864937
000070 ea 59 ff 3d 1f 03 39 3e 6d fd 28 3e f9 6b 2d 3f
       0.124683216 0.18067597 0.16502924 0.6774288
000080 85 79 8b 3e 22 42 20 3e c0 33 2f 3e f2 06 75 3e
       0.2724115 0.15650228 0.17109585 0.2392843
000090 8c 9f 5e 3f 40 d3 a5 3e e8 c1 a8 3e 53 03 7f 3e
       0.869622 0.32387733 0.3296044 0.24903612
0000a0 01 e8 dc 3e 64 a3 a8 3e 11 a7 1f 3f 5b 37 3e 3e
       0.43145755 0.32937157 0.623643 0.18575804
0000b0 62 86 8d 3e 23 59 41 3e 40 07 10 3f 40 73 02 3f
       0.27641588 0.18881659 0.5626106 0.5095711

0.encoder.level2.0.c1.conv.weight f4 [24, 8, 1, 1]
000000 54 d3 7e bd db c3 3c 3b 3f ca 98 3d 6f 9d c3 3d
       -0.062213257 0.0028803262 0.074604504 0.095515124
000010 d8 24 c3 3c f5 d2 58 3d 82 61 84 3d 32 05 3e 3d
       0.02382128 0.05293556 0.06463911 0.046391673
000020 9a ff 23 bd fa 09 ad bd f4 6f 31 3d 91 aa 7b 3d
       -0.040038683 -0.084491685 0.043319657 0.06144196
000030 e3 41 0c 3d 68 84 e7 bc c5 cb 46 bd 17 be 85 bd
       0.034242522 -0.028261378 -0.048534174 -0.065303974
000040 68 2d db bc 89 34 df bd 58 69 eb bd a9 38 48 3d
       -0.02675505 -0.10898692 -0.11494702 0.04888216
000050 c5 d3 3f 3d 90 96 24 bc 38 3e fe bc 75 77 76 bd
       0.04683282 -0.0100456625 -0.031035528 -0.060172517
000060 fe 2b 06 bc 48 25 a9 bd f7 b3 41 bc e5 6b 24 3d
       -0.0081891995 -0.08259064 -0.011822692 0.04014196
000070 e7 fa b8 3c 14 17 73 bc 9a 68 0b bc 8c d4 8d bd
       0.022580577 -0.014837045 -0.008508826 -0.06925306
000080 ec a3 b1 3d 15 aa 4c bc 5c 79 fe bc fd 26 09 39
       0.08673844 -0.012491723 -0.031063728 0.00013079862
000090 01 63 8a bc 79 00 dd bd 89 60 12 bc 10 32 65 3c
       -0.016892912 -0.10791106 -0.008934149 0.013988987
0000a0 17 6e da bc 27 b5 93 3b 3a d6 f8 3c dc 68 0b bd
       -0.026663823 0.004507679 0.030375589 -0.03403555
0000b0 a4 79 cb 3d 2e 5d e7 3d fa ee f1 bb d4 94 74 3b
       0.099353105 0.112970695 -0.0073832246 0.0037320154
0000c0 e1 7a 18 bc e4 89 81 bd 43 19 0a bc e0 50 57 3d
       -0.00930664 -0.06325129 -0.008428874 0.052567363
0000d0 24 92 c3 3c f8 6d 91 bc 46 cd 84 bc 7f 04 b0 bd
       0.023873396 -0.017752632 -0.016211163 -0.085946076
0000e0 62 c7 31 3d 63 dc 15 bc 2b 9d 08 bd 4a e9 b5 3c
       0.043403037 -0.009146783 -0.033353012 0.022205967
0000f0 3b 65 c0 bb 22 41 05 be 12 36 d6 3c c0 9d 03 3d
       -0.0058714426 -0.13013127 0.02614883 0.032132864
000100 53 ee 4e bd 4b f5 69 bb 49 ec 7d 3d 2c ad a5 bd
       -0.050520252 -0.0035699185 0.061992917 -0.080896705
000110 64 dd e7 3d bc f9 d3 3c c7 2a f4 3b b3 ce 2e bd
       0.11321524 0.025875919 0.0074513885 -0.042677592
000120 bc 46 a5 3d c8 fc dd ba 66 f8 b6 bc a8 8f b8 bd
       0.08070132 -0.0016936297 -0.022335242 -0.09011775
000130 65 b3 88 3d 12 b3 cf bd e9 2c 0b bd fe b8 db bc
       0.06674842 -0.10141577 -0.033978377 -0.02682161
000140 21 af c5 3c f8 44 80 bd e6 6a 4f bd 90 08 39 3d
       0.02413136 -0.06263155 -0.050639056 0.04517418
000150 81 2d b3 3c f1 26 f7 3a 3c 4a be 3c 7e 86 b0 bd
       0.021872284 0.001885621 0.023228757 -0.08619402
000160 ff f8 c3 bd 4d 9d e2 3c 33 3b 4a bd 6b f0 d2 3b
       -0.095689766 0.027662897 -0.049372863 0.0064373515
000170 12 1f 11 bc e7 cc bc bc 90 b9 2f be 9f 3f 8a 3d
       -0.008857505 -0.023046924 -0.1716063 0.06750416
000180 99 d4 1c 3c af f9 07 3e c4 ea 7f 3b fb 8d 1a 3d
       0.009572172 0.1327884 0.0039049843 0.03773306
000190 e0 ca b1 3b ac 9d 43 bc a9 83 05 3d 54 31 9e bd
       0.005425796 -0.011939447 0.032596264 -0.07724252
0001a0 83 f7 16 bc e8 3a d5 bd c0 56 ae bb ac b1 17 bd
       -0.009214285 -0.10411626 -0.0053204 -0.037034675
0001b0 a2 7b 25 bc 72 f1 60 3b 03 41 15 bd 47 d9 9b 3d
       -0.010100277 0.00343236 -0.036438953 0.07609802
0001c0 40 cb 06 bc 6c ea d1 3b 50 e2 db bd 23 fd 20 bb
       -0.0082271695 0.006406119 -0.10736525 -0.0024564944
0001d0 40 23 b6 3c 3b 54 07 3e b4 22 8e bb 0a 35 3a 3b
       0.022233605 0.13215725 -0.004337633 0.0028412961
0001e0 31 fb 0e 3d 4d 2f 90 3c ba 5c 13 3c d1 eb b8 3d
       0.034907524 0.01760068 0.008994276 0.090293534
0001f0 dc b9 09 bb 19 75 d8 3c 69 1a b8 3d e3 80 09 3e
       -0.0021015322 0.026423024 0.08989412 0.13428073
000200 49 4e 1e 3d d8 2a 16 3d b9 43 62 bd 60 b0 14 bb
       0.038648877 0.036661953 -0.055240367 -0.0022688136
000210 95 f0 79 bd 05 b9 ca bd 67 2b fe 3c 70 96 85 3d
       -0.061020453 -0.09898571 0.031026555 0.06522834
000220 fe e5 05 3b a3 22 1e 3d 0e f1 4c bc 6a 4a 67 bc
       0.0020431275 0.03860725 -0.012508644 -0.014116863
000230 c5 ca c9 bd 0c 8c 9b bd 13 9f 8a bb d5 b4 8e 3d
       -0.09853128 -0.07595071 -0.004230389 0.06968085
000240 f7 5b 10 bd 60 5d 20 3b df 08 7e bb 90 f9 54 b9
       -0.035243955 0.0024469718 -0.0038762612 -0.00020310865
000250 c0 aa 87 3d d9 63 ca 3d ea 13 f9 ba b8 1d e3 bb
       0.06624365 0.09882326 -0.0019003127 -0.006931033
000260 fa 95 19 bc 53 65 67 bc 3f 02 91 3d b6 fc ed 3b
       -0.009374136 -0.014123279 0.070805065 0.0072627915
000270 74 64 4d be 75 bf 08 3e 4b a1 b5 ba 55 44 83 bd
       -0.20057851 0.13354285 -0.0013857273 -0.06409518
000280 ec 68 ad 3b 63 9d a7 bb 31 8b 10 3e 5b 93 f6 ba
       0.0052920487 -0.0051151975 0.14115597 -0.0018812226
000290 2b 15 95 3d 11 19 d2 bc 9a 29 cf 3b 40 3b 69 bc
       0.07279428 -0.025646718 0.006322098 -0.014235318
0002a0 43 da e5 3c f4 ed d1 ba cd b9 3a bb 34 aa 40 bd
       0.028058177 -0.001601635 -0.0028492094 -0.04703732
0002b0 f3 10 65 bd 6f 89 d1 bd 0d 37 a0 bc 5b 84 6b bd
       -0.055924367 -0.102312915 -0.0195575 -0.05749927
0002c0 ba b8 de 3d 2d ab a5 bd 43 1b 14 bb d7 64 c9 bd
       0.108750775 -0.0808929 -0.0022599257 -0.09833687
0002d0 38 1f 72 3b 7d d6 0f 3d 3c 1e b0 3d 09 77 e3 3c
       0.0036944877 0.03511666 0.08599517 0.027766721
0002e0 28 73 c4 bd c7 9d 98 bd a1 12 00 bc c3 96 dd bd
       -0.09592277 -0.07451969 -0.0078169415 -0.10819771
0002f0 78 51 c2 3a c0 36 c0 bc c0 b6 21 bd 1e 0c 8a bd
       0.0014825305 -0.023463607 -0.039480925 -0.067405924

0.encoder.level2.1.BR.bn.bias f4 [48]
000000 21 36 92 3e c6 4c 17 3e f7 8c 47 bf be e0 00 3e
       0.28556922 0.1477538 -0.7794947 0.12585732
000010 c6 07 85 3e a7 8c 96 3d 2b 22 2f be 04 18 45 3f
       0.25982493 0.07351046 -0.17102878 0.7698977
000020 da 1c 39 3d 94 6c 07 3e fd 89 a7 3e 5a da 03 3e
       0.04519353 0.13225013 0.32722464 0.12876263
000030 f8 6b 8f 3e 39 1c 24 3f 31 e3 00 bf b0 e6 5d 3e
       0.2801206 0.64105564 -0.50346667 0.21670032
000040 72 8f 89 3e 27 d3 e8 bd a1 85 0c bf cf ea 43 bf
       0.26867253 -0.11368399 -0.548914 -0.76530164
000050 4d 76 8f 3d a8 d2 0b 3f 4b 83 b8 be 0a dd a8 be
       0.07004986 0.5461831 -0.3603767 -0.3298114
000060 cd a7 3c be 0a 65 16 3e 46 1d 96 3e 8a 8c 7b 3e
       -0.18423386 0.14686981 0.2931921 0.2456533
000070 a6 b8 39 3e 84 ce cb be d0 03 2a be a3 d1 41 3e
       0.18136844 -0.39805996 -0.16603017 0.18927626
000080 6f c9 4c 3e 4c a8 09 be 4e a8 d5 be ba 03 61 3e
       0.19998716 -0.13443106 -0.4172997 0.21974078
000090 30 bd 4d 3e 19 2a 78 3e 2e 85 aa be c7 16 5f 3e
       0.200917 0.24234809 -0.33304733 0.21786033
0000a0 16 d3 f3 3e 86 b2 8e 3d a8 a3 66 3e 85 ad 73 3e
       0.47621983 0.069676444 0.22523367 0.23796661
0000b0 c0 73 69 bd 31 f3 ef 3e 22 4b 68 3e b5 d9 eb 3d
       -0.056995153 0.46865228 0.22684911 0.11516134

0.encoder.level2.1.BR.bn.running_mean f4 [48]
000000 2d 2a 38 3e 18 5f 0c 3f 43 cb 11 3c c3 3b 0e 3e
       0.17984839 0.548326 0.008898559 0.13889985
000010 b0 23 0e 3e 1f 59 21 3e 88 fd be 3d f9 fc 72 3d
       0.13880801 0.15756653 0.09325701 0.059323285
000020 08 ed 63 3c f4 31 b2 bd 0b 70 cf 3e 77 4a 9c 3d
       0.013911493 -0.08700934 0.4051517 0.076313905
000030 a9 90 72 3e 61 fd 0a 3d a2 92 e0 3e 27 50 95 3e
       0.23687996 0.033933047 0.43861872 0.29162714
000040 20 9c 41 3e 8e 58 88 3d 2a 14 7e 3e b4 34 c1 3f
       0.18907213 0.066575155 0.2481238 1.5094209
000050 ae c2 92 3e 6d 4d ca 3c 0b 88 9e 3e ae 22 31 3c
       0.28664154 0.024695123 0.30963168 0.010811491
000060 93 73 52 3e 9e 35 4d 3e 5d 99 ae 3d 6e 1d 5c 3e
       0.205519 0.20039985 0.085253455 0.21495602
000070 ed 73 a1 3d 6c c8 4d 3e cd e5 6a 3d 2e 61 0c 3e
       0.07883439 0.20095986 0.05734806 0.13708946
000080 25 65 b6 3e ab 25 a3 3d f4 49 8e bf 1c cf be 3d
       0.35624042 0.07966169 -1.1116319 0.09316847
000090 ca d4 ea 3d 3d a4 00 3e 1c e4 b5 3e 08 b3 c2 3e
       0.114663675 0.12562652 0.35525596 0.38027215
0000a0 c8 f9 f8 3d 8d 3e da 3d 8b 87 88 3e cf d0 6f 3e
       0.12157017 0.10656462 0.2666591 0.23419498
0000b0 20 f7 bc 3e 43 a7 4f 3e 9e 04 d5 3d 5d 1d bf 3e
       0.3690729 0.20278649 0.10401271 0.3732709

0.encoder.level2.1.BR.bn.running_var f4 [48]
000000 d5 f9 17 3f 80 c6 c2 3d 0e 74 8c 3f 79 c2 ed 3d
       0.5936559 0.09510517 1.0972917 0.11609358
000010 1c 98 73 3d ff 10 8e 3e b7 09 20 3f 8f 37 84 3f
       0.059471235 0.27747342 0.62514824 1.0329455
000020 95 08 b3 3e 8f 14 75 3c 83 e3 03 3f 3f 4d 04 3e
       0.34967485 0.014958515 0.5151903 0.12920092
000030 ef 52 dc 3f 12 2f 51 3f ac 09 cf 3d 1b 6c 02 3f
       1.7212809 0.8171245 0.10109267 0.50946206
000040 84 e9 99 3f 0c 29 47 3f 90 25 08 3f 71 31 3b 3b
       1.2024388 0.7779701 0.53182316 0.0028563405
000050 42 34 8e 3f b3 95 48 3f 38 df 23 3f 3b 36 27 3f
       1.1109698 0.7835342 0.6401248 0.65317124
000060 82 e9 b7 3f 71 c2 6c 40 18 9f 9a 3d d5 dd 9d 3f
       1.4368136 3.6993678 0.07549876 1.2333323
000070 7d a9 b8 3f 53 03 12 3d 3a 19 20 3f 25 f7 af 3f
       1.4426724 0.0356477 0.6253849 1.3747298
000080 f7 7d 9d 3f 4b b4 28 3e 43 cb bd 3e 3a 08 4c 3f
       1.2304066 0.16475026 0.3706914 0.7970005
000090 d8 7e e8 3f 39 78 3d 3f 98 a9 24 3e 3a f3 bc 3d
       1.816371 0.7401157 0.1608032 0.09226079
0000a0 96 35 ea 3f 43 31 be 3c 63 fa 0d 3e b9 3d dd 3f
       1.8297603 0.02321685 0.13865046 1.7284461
0000b0 f3 30 40 3f 03 ff a5 3f 01 d2 02 40 1b cb df 3d
       0.7507469 1.2968448 2.0440676 0.10927411

0.encoder.level2.1.BR.bn.weight f4 [48]
000000 c7 ef 21 3e 09 d4 f1 3d cf f0 5d 3f 25 54 dc 3d
       0.15814124 0.118080206 0.8669557 0.10758237
000010 8a 03 7f 3e 86 64 ca 3e 2e d7 d7 3e 58 3f ad 3e
       0.24903694 0.39529818 0.42156357 0.3383739
000020 b5 d1 32 3e 0a af 11 3e 89 b9 5e 3e d4 a1 83 3e
       0.1746281 0.14226928 0.21750464 0.25709403
000030 9b d8 a2 3e ae 9c 31 3f 21 c7 b5 3e 9a ac cd 3d
       0.31805882 0.693797 0.35503486 0.10042687
000040 7d eb ca 3d 73 ca ee 3e 4e de c9 3e e9 a2 4e 3f
       0.09908197 0.46638831 0.39427418 0.8071733
000050 8c 32 5a 3e 64 0e 87 3e 1d 1d c1 3e be 27 12 3f
       0.21308345 0.26378167 0.37717524 0.5709189
000060 06 fd bc 3e 50 8b 90 3e ee 30 37 3e 7a bc 4d 3e
       0.36911792 0.28231287 0.17889759 0.2009143
000070 74 15 10 3e b5 2d dc 3e 46 9b 52 3e 90 84 12 3e
       0.14070684 0.43003622 0.20567045 0.14308381
000080 26 1e cf 3d 2c 4e 91 3e d2 48 9b 3e d7 bf c9 3d
       0.10113172 0.28379953 0.30328995 0.09851044
000090 e9 99 81 3e c5 e9 a0 3e 1e e4 08 3f 6d 6c 31 3e
       0.25312737 0.31428352 0.5347308 0.17326517
0000a0 a9 b2 4d 3e de 13 09 3e 86 07 2a 3e f0 14 4e 3e
       0.20087685 0.13386485 0.16604432 0.20125175
0000b0 5c 9e 5c 3e a0 8b d8 3e a4 54 83 3e 45 1f 93 3e
       0.21544784 0.42294025 0.25650513 0.28734794
