data/mediapipe.onnx (onnx, 772413 bytes, 110 tensors)

segment/y:0 f4 [2]
0.06213379 -0.06213379
00000000: 0080 7e3d 0080 7ebd

depthwise_conv2d_9/y:0 f4 [16]
0.14758301 -0.640625 0.16149902 0.2854004 -0.47705078 -0.020736694 -0.8847656 -0.6425781
0.73876953 -0.037597656 -0.984375 -0.89208984 -0.10961914 -1.515625 -0.90966797 0.0008029938
00000000: 0020 173e 0000 24bf 0060 253e 0020 923e
00000010: 0040 f4be 00e0 a9bc 0080 62bf 0080 24bf
00000020: 0020 3d3f 0000 1abd 0000 7cbf 0060 64bf
00000030: 0080 e0bd 0000 c2bf 00e0 68bf 0080 523a

depthwise_conv2d_9/depthwise_conv2d/filter_in:0 f4 [16, 1, 3, 3]
-0.04269409 -0.2758789 0.08331299 0.17346191 -0.52783203 0.10394287 0.07354736 -0.24768066
0.1484375 0.12512207 7.2148438 -1.3574219 -1.7421875 -0.24291992 -1.7128906 0.27539062
-0.30981445 0.6928711 -0.2758789 -0.5620117 -0.29370117 -0.7192383 7.3164062 -1.2128906
-0.68896484 -0.62939453 -0.65185547 0.09875488 0.61083984 -0.23144531 1.5449219 -2.7558594
0.17114258 -0.04272461 -0.4519043 -0.014450073 0.36669922 0.028533936 0.15551758 0.21496582
-3.9589844 0.1628418 0.24145508 -0.002122879 0.23730469 0.0947876 0.044921875 -0.018051147
-0.12384033 -0.43676758 0.020233154 0.010421753 -0.16027832 0.00667572 0.45458984 -0.49365234
-0.16137695 4.9726562 -2.2929688 -0.14477539 -0.58203125 -0.5571289 0.5449219 -0.1427002
0.7216797 -0.32055664 1.1308594 -0.9238281 -1.5292969 -0.43969727 0.62402344 -0.06738281
-0.015007019 0.66796875 -0.2590332 0.20324707 0.58154297 0.10583496 -0.099731445 -0.15856934
-0.1381836 -0.39746094 -2.6582031 0.46850586 -0.7519531 2.6953125 -1.7724609 1.1328125
1.6318359 0.29248047 0.48999023 -1.8232422 -0.47729492 1.4970703 -0.019042969 -1.5664062
-0.43432617 0.8383789 0.0030155182 1.1484375 -1.1376953 -1.0693359 1.5253906 -5.9492188
0.6489258 0.83740234 0.23852539 0.97314453 0.1697998 -0.04776001 0.036346436 0.048797607
-2.0234375 0.30004883 0.16748047 0.1940918 0.12866211 -1.40625 2.7871094 -1.4199219
-13.9765625 11.34375 -1.4335938 -0.14868164 0.7324219 -1.0869141 -0.74902344 -6.171875
0.88427734 0.47265625 3.203125 0.9951172 -0.19677734 1.9033203 -1.6552734 -0.17993164
-0.30249023 -0.15100098 -0.22509766 1.3583984 -0.41674805 -0.33398438 -0.21728516 -0.2244873
00000000: 00e0 2ebd 0040 8dbe 00a0 aa3d 00a0 313e
00000010: 0020 07bf 00e0 d43d 00a0 963d 00a0 7dbe
00000020: 0000 183e 0020 003e 00e0 e640 00c0 adbf
00000030: 0000 dfbf 00c0 78be 0040 dbbf 0000 8d3e
00000040: 00a0 9ebe 0060 313f 0040 8dbe 00e0 0fbf
00000050: 0060 96be 0020 38bf 0020 ea40 0040 9bbf
00000060: 0060 30bf 0020 21bf 00e0 26bf 0040 ca3d
00000070: 0060 1c3f 0000 6dbe 00c0 c53f 0060 30c0
00000080: 0040 2f3e 0000 2fbd 0060 e7be 00c0 6cbc
00000090: 00c0 bb3e 00c0 e93c 0040 1f3e 0020 5c3e
000000a0: 0060 7dc0 00c0 263e 0040 773e 0020 0bbb
000000b0: 0000 733e 0020 c23d 0000 383d 00e0 93bc
000000c0: 00a0 fdbd 00a0 dfbe 00c0 a53c 00c0 2a3c
000000d0: 0020 24be 00c0 da3b 00c0 e83e 00c0 fcbe
000000e0: 0040 25be 0020 9f40 00c0 12c0 0040 14be
000000f0: 0000 15bf 00a0 0ebf 0080 0b3f 0020 12be
00000100: 00c0 383f 0020 a4be 00c0 903f 0080 6cbf
00000110: 00c0 c3bf 0020 e1be 00c0 1f3f 0000 8abd
00000120: 00e0 75bc 0000 2b3f 00a0 84be 0020 503e
00000130: 00e0 143f 00c0 d83d 0040 ccbd 0060 22be
00000140: 0080 0dbe 0080 cbbe 0020 2ac0 00e0 ef3e
00000150: 0080 40bf 0080 2c40 00e0 e2bf 0000 913f
00000160: 00e0 d03f 00c0 953e 00e0 fa3e 0060 e9bf
00000170: 0060 f4be 00a0 bf3f 0000 9cbc 0080 c8bf
00000180: 0060 debe 00a0 563f 00a0 453b 0000 933f
00000190: 00a0 91bf 00e0 88bf 0040 c33f 0060 bec0
000001a0: 0020 263f 0060 563f 0040 743e 0020 793f
000001b0: 00e0 2d3e 00a0 43bd 00e0 143d 00e0 473d
000001c0: 0080 01c0 00a0 993e 0080 2b3e 00c0 463e
000001d0: 00c0 033e 0000 b4bf 0060 3240 00c0 b5bf
000001e0: 00a0 5fc1 0080 3541 0080 b7bf 0040 18be
000001f0: 0080 3b3f 0020 8bbf 00c0 3fbf 0080 c5c0
00000200: 0060 623f 0000 f23e 0000 4d40 00c0 7e3f
00000210: 0080 49be 00a0 f33f 00e0 d3bf 0040 38be
00000220: 00e0 9abe 00a0 1abe 0080 66be 00e0 ad3f
00000230: 0060 d5be 0000 abbe 0080 5ebe 00e0 65be

depthwise_conv2d_8/y:0 f4 [24]
0.17358398 0.113464355 -0.85546875 0.4338379 -0.18786621 -0.51220703 0.04638672 0.2932129
-0.41186523 0.62402344 -0.5073242 -0.11425781 -0.105773926 -0.029205322 -0.16540527 -0.09436035
-0.074645996 -1.4755859 -0.36328125 -0.20727539 -0.6230469 -0.10583496 -0.2434082 -0.9477539
00000000: 00c0 313e 0060 e83d 0000 5bbf 0020 de3e
00000010: 0060 40be 0020 03bf 0000 3e3d 0020 963e
00000020: 00e0 d2be 00c0 1f3f 00e0 01bf 0000 eabd
00000030: 00a0 d8bd 0040 efbc 0060 29be 0040 c1bd
00000040: 00e0 98bd 00e0 bcbf 0000 babe 0040 54be
00000050: 0080 1fbf 00c0 d8bd 0040 79be 00a0 72bf

depthwise_conv2d_8/depthwise_conv2d/filter_in:0 f4 [24, 1, 3, 3]
-0.05380249 0.09893799 -0.039886475 -0.27856445 0.28710938 -0.17541504 0.19396973 0.49536133
0.10333252 -0.062805176 -0.093322754 -0.09680176 -0.47460938 0.47802734 0.2529297 -0.09680176
0.20300293 0.051452637 0.17468262 -0.8227539 0.27124023 0.65234375 -2.7929688 0.17797852
0.1706543 0.49047852 -0.14953613 0.09442139 0.14782715 0.112854004 0.4975586 -0.3154297
0.29003906 0.124694824 0.2866211 0.1706543 -0.024902344 -0.32348633 0.70410156 -0.50390625
-1.7070312 3.3535156 0.13146973 -0.51464844 -0.35327148 -0.090270996 -1.2119141 -0.0077400208
0.15441895 -0.953125 0.09375 0.07141113 -0.028884888 0.07519531 0.080444336 0.4255371
0.23510742 -0.22595215 -1.6542969 -0.08001709 0.008605957 0.03213501 -0.07836914 -0.16442871
-0.07897949 0.5761719 -0.8544922 -2.4003906 3.5351562 -0.022903442 0.06951904 -0.30273438
-0.24169922 -1.6894531 0.11553955 -0.80859375 1.53125 1.0771484 0.10064697 0.37182617
0.05218506 -0.014183044 -0.1015625 0.09942627 0.32495117 -0.10546875 0.110961914 0.054748535
-0.10681152 0.074645996 -0.734375 0.3322754 0.2709961 -1.7441406 3.5214844 -0.15136719
0.04248047 0.4831543 -0.31958008 0.033416748 -0.27172852 0.13452148 -0.05819702 -1.1367188
-0.1081543 0.23132324 0.45361328 0.122924805 -0.029708862 0.17382812 -0.028503418 0.049072266
1.46875 -0.007987976 0.034606934 -0.08099365 -0.11254883 0.46411133 0.4345703 -0.25439453
0.019378662 -0.10656738 0.020690918 -0.05026245 0.028137207 -0.022613525 -0.06549072 -0.17114258
-0.032989502 -0.089660645 -1.0625 -0.121520996 0.031829834 0.27783203 0.09753418 0.07434082
0.46801758 0.12335205 -2.1796875 0.21862793 -0.38305664 -0.009254456 0.2467041 0.1694336
3.2901764e-05 -0.09246826 5.543232e-06 -0.04385376 -0.45629883 -0.072265625 0.0010557175 -0.13061523
0.02293396 0.1517334 0.45092773 0.6245117 -3.6035156 -0.6430664 1.2197266 -0.9511719
-0.70410156 0.41845703 0.05227661 0.030410767 0.01966858 -1.5693359 0.41503906 -0.004310608
0.07672119 0.1138916 -0.024276733 -0.13098145 -0.8911133 -0.50683594 0.34887695 -1.0986328
-0.37060547 0.08581543 1.0332031 0.089538574 0.53222656 -0.46313477 -0.13500977 2.8671875
0.46313477 -0.58203125 -0.41015625 0.16442871 -0.096191406 0.12414551 0.74121094 0.050476074
-0.114746094 -0.8388672 -0.01210022 -0.21936035 -0.52490234 -0.07159424 -0.03994751 -0.1328125
0.030517578 0.24084473 -0.9121094 -0.014541626 0.00894165 0.037322998 0.0262146 0.36157227
-0.48779297 0.29345703 0.18383789 -2.5566406 0.15270996 0.22497559 -0.040222168 -0.03540039
00000000: 0060 5cbd 00a0 ca3d 0060 23bd 00a0 8ebe
00000010: 0000 933e 00a0 33be 00a0 463e 00a0 fd3e
00000020: 00a0 d33d 00a0 80bd 0020 bfbd 0040 c6bd
00000030: 0000 f3be 00c0 f43e 0080 813e 0040 c6bd
00000040: 00e0 4f3e 00c0 523d 00e0 323e 00a0 52bf
00000050: 00e0 8a3e 0000 273f 00c0 32c0 0040 363e
00000060: 00c0 2e3e 0020 fb3e 0020 19be 0060 c13d
00000070: 0060 173e 0020 e73d 00c0 fe3e 0080 a1be
00000080: 0080 943e 0060 ff3d 00c0 923e 00c0 2e3e
00000090: 0000 ccbc 00a0 a5be 0040 343f 0000 01bf
000000a0: 0080 dabf 00a0 5640 00a0 063e 00c0 03bf
000000b0: 00e0 b4be 00e0 b8bd 0020 9bbf 00a0 fdbb
000000c0: 0020 1e3e 0000 74bf 0000 c03d 0040 923d
000000d0: 00a0 ecbc 0000 9a3d 00c0 a43d 00e0 d93e
000000e0: 00c0 703e 0060 67be 00c0 d3bf 00e0 a3bd
000000f0: 0000 0d3c 00a0 033d 0080 a0bd 0060 28be
00000100: 00c0 a1bd 0080 133f 00c0 5abf 00a0 19c0
00000110: 0040 6240 00a0 bbbc 0060 8e3d 0000 9bbe
00000120: 0080 77be 0040 d8bf 00a0 ec3d 0000 4fbf
00000130: 0000 c43f 00e0 893f 0020 ce3d 0060 be3e
00000140: 00c0 553d 0060 68bc 0000 d0bd 00a0 cb3d
00000150: 0060 a63e 0000 d8bd 0040 e33d 0040 603d
00000160: 00c0 dabd 00e0 983d 0000 3cbf 0020 aa3e
00000170: 00c0 8a3e 0040 dfbf 0060 6140 0000 1bbe
00000180: 0000 2e3d 0060 f73e 00a0 a3be 00e0 083d
00000190: 0020 8bbe 00c0 093e 0060 6ebd 0080 91bf
000001a0: 0080 ddbd 00e0 6c3e 0040 e83e 00c0 fb3d
000001b0: 0060 f3bc 0000 323e 0080 e9bc 0000 493d
000001c0: 0000 bc3f 00e0 02bc 00c0 0d3d 00e0 a5bd
000001d0: 0080 e6bd 00a0 ed3e 0080 de3e 0040 82be
000001e0: 00c0 9e3c 0040 dabd 0080 a93c 00e0 4dbd
000001f0: 0080 e63c 0040 b9bc 0020 86bd 0040 2fbe
00000200: 0020 07bd 00a0 b7bd 0000 88bf 00e0 f8bd
00000210: 0060 023d 0040 8e3e 00c0 c73d 0040 983d
00000220: 00a0 ef3e 00a0 fc3d 0080 0bc0 00e0 5f3e
00000230: 0020 c4be 00a0 17bc 00a0 7c3e 0080 2d3e
00000240: 0000 0a38 0060 bdbd 0000 ba36 00a0 33bd
00000250: 00a0 e9be 0000 94bd 0060 8a3a 00c0 05be
00000260: 00e0 bb3c 0060 1b3e 00e0 e63e 00e0 1f3f
00000270: 00a0 66c0 00a0 24bf 0020 9c3f 0080 73bf
00000280: 0040 34bf 0040 d63e 0020 563d 0020 f93c
00000290: 0020 a13c 00e0 c8bf 0080 d43e 0040 8dbb
000002a0: 0020 9d3d 0040 e93d 00e0 c6bc 0020 06be
000002b0: 0020 64bf 00c0 01bf 00a0 b23e 00a0 8cbf
000002c0: 00c0 bdbe 00c0 af3d 0040 843f 0060 b73d
000002d0: 0040 083f 0020 edbe 0040 0abe 0080 3740
000002e0: 0020 ed3e 0000 15bf 0000 d2be 0060 283e
000002f0: 0000 c5bd 0040 fe3d 00c0 3d3f 00c0 4e3d
00000300: 0000 ebbd 00c0 56bf 0040 46bc 00a0 60be
00000310: 0060 06bf 00a0 92bd 00a0 23bd 0000 08be
00000320: 0000 fa3c 00a0 763e 0080 69bf 0040 6ebc
00000330: 0080 123c 00e0 183d 00c0 d63c 0020 b93e
00000340: 00c0 f9be 0040 963e 0040 3c3e 00a0 23c0
00000350: 0060 1c3e 0060 663e 00c0 24bd 0000 11bd

depthwise_conv2d_7/y:0 f4 [72]
0.45214844 -0.71435547 0.005744934 -0.27270508 0.5732422 0.09716797 0.055145264 -0.09100342
0.007949829 0.017242432 0.031982422 0.09265137 0.33398438 -0.5493164 0.13562012 -0.2626953
0.33666992 0.00868988 -0.5 -0.30932617 -0.7626953 -1.0126953 0.06756592 -0.1237793
-0.42456055 -0.5830078 -0.42456055 0.36132812 -0.27124023 -0.33422852 -0.011779785 0.14990234
-1.1103516 -0.2697754 0.328125 0.62646484 0.62841797 0.17077637 0.1965332 1.8886719
-0.119506836 0.43652344 -0.45703125 -0.3803711 0.3623047 -0.41015625 0.73339844 0.26733398
0.46191406 -0.0892334 -0.8642578 -0.2578125 -0.27539062 -0.034210205 0.3713379 -0.2668457
-0.60791016 -0.53808594 0.18115234 -0.45483398 0.13671875 -0.640625 -0.47998047 -0.63134766
-0.07128906 -0.43481445 -0.43823242 0.93652344 0.3256836 0.117248535 -0.50634766 0.40063477
00000000: 0080 e73e 00e0 36bf 0040 bc3b 00a0 8bbe
00000010: 00c0 123f 0000 c73d 00e0 613d 0060 babd
00000020: 0040 023c 0040 8d3c 0000 033d 00c0 bd3d
00000030: 0000 ab3e 00a0 0cbf 00e0 0a3e 0080 86be
00000040: 0060 ac3e 0060 0e3c 0000 00bf 0060 9ebe
00000050: 0040 43bf 00a0 81bf 0060 8a3d 0080 fdbd
00000060: 0060 d9be 0040 15bf 0060 d9be 0000 b93e
00000070: 00e0 8abe 0020 abbe 0000 41bc 0080 193e
00000080: 0020 8ebf 0020 8abe 0000 a83e 0060 203f
00000090: 00e0 203f 00e0 2e3e 0040 493e 00c0 f13f
000000a0: 00c0 f4bd 0080 df3e 0000 eabe 00c0 c2be
000000b0: 0080 b93e 0000 d2be 00c0 3b3f 00e0 883e
000000c0: 0080 ec3e 00c0 b6bd 0040 5dbf 0000 84be
000000d0: 0000 8dbe 0020 0cbd 0020 be3e 00a0 88be
000000e0: 00a0 1bbf 00c0 09bf 0080 393e 00e0 e8be
000000f0: 0000 0c3e 0000 24bf 00c0 f5be 00a0 21bf
00000100: 0000 92bd 00a0 debe 0060 e0be 00c0 6f3f
00000110: 00c0 a63e 0020 f03d 00a0 01bf 0020 cd3e

depthwise_conv2d_7/depthwise_conv2d/filter_in:0 f4 [72, 1, 5, 5]
0.09112549 0.010726929 0.12805176 0.03173828 -0.02670288 0.11956787 0.1307373 0.101867676
0.09265137 -0.012428284 0.041809082 0.26831055 0.46191406 0.19104004 -0.050231934 0.034332275
0.042907715 0.19396973 0.11883545 0.14880371 0.021240234 0.042114258 0.1394043 -0.05895996
0.018844604 -0.34887695 -0.04208374 -0.32885742 -0.22717285 -0.21496582 -0.114868164 -0.86376953
-1.8535156 -0.3137207 -0.32763672 0.27539062 0.12866211 -0.53271484 -0.22485352 0.31176758
-0.068725586 -0.4584961 -0.7446289 -0.0925293 0.099121094 -0.16369629 0.019134521 0.10076904
-0.18664551 0.09387207 0.044891357 -0.2475586 -0.1829834 -0.05105591 -0.15698242 0.029388428
-0.24719238 -0.18261719 -0.4633789 -0.5107422 -0.010063171 0.9663086 0.3305664 -0.43432617
0.0044288635 -0.10583496 -0.17175293 -0.044830322 0.14624023 0.07977295 -0.08068848 -0.17004395
-0.1081543 0.14672852 -0.08013916 -0.058013916 -0.02319336 -0.04421997 -0.11584473 0.026885986
0.014175415 0.020141602 -0.11846924 -0.15649414 0.0791626 0.074401855 0.028549194 0.05984497
0.038146973 0.09875488 0.20092773 0.12854004 0.14746094 0.10192871 0.060668945 0.009437561
0.0047683716 0.09326172 -0.0024204254 -0.020736694 0.08514404 -0.2401123 -0.07751465 -0.15185547
0.047576904 -0.07836914 0.15332031 -0.31591797 0.32055664 0.14367676 -0.07489014 1.0585938
-2.9472656 0.5932617 0.061767578 0.078552246 -0.24743652 -0.045806885 -0.06719971 -0.07281494
0.04876709 -0.050811768 -0.19482422 -0.08874512 0.025894165 -0.03479004 0.012619019 0.043395996
-0.05807495 -0.13647461 0.092163086 0.13452148 -0.011436462 0.0184021 -0.06298828 0.06921387
0.171875 0.22741699 -0.23388672 -0.1907959 0.042510986 -0.08544922 0.3076172 -0.15429688
-0.12805176 0.030914307 0.105529785 0.060455322 -0.03942871 -0.1105957 -0.04562378 -0.01763916
0.044067383 -0.0007176399 -0.06781006 0.00667572 -0.046936035 -0.16784668 0.032318115 -0.026672363
0.1652832 0.33520508 0.12780762 0.40161133 0.10723877 0.07678223 0.3413086 0.13830566
0.048736572 0.125 -0.0027713776 0.025680542 -0.15966797 -0.07287598 0.027740479 -0.5932617
0.08782959 0.12487793 0.124816895 0.29223633 -0.99609375 0.47729492 1.0791016 -0.24072266
0.045318604 -1.3242188 0.84277344 1.3369141 -0.42944336 0.24450684 -0.3720703 -0.55566406
0.22070312 0.08270264 -0.01600647 0.11480713 0.18603516 0.3737793 0.08312988 -0.19824219
-0.1295166 -0.101989746 0.21252441 -0.07910156 0.028869629 0.018325806 0.27539062 0.6796875
0.08666992 0.012702942 -0.17504883 0.26220703 0.5883789 0.09173584 -0.033447266 -0.099975586
-0.15930176 0.004890442 0.02734375 -0.067871094 0.047027588 -0.014328003 -0.03466797 -0.021057129
0.056030273 -0.089416504 0.0036354065 0.093322754 0.101501465 0.04034424 -0.07873535 -0.014831543
-0.011177063 0.060302734 -0.03793335 -0.0692749 -0.10491943 -0.06585693 0.22766113 0.08862305
0.028747559 0.08972168 0.15148926 0.16503906 0.060760498 -0.02671814 0.07647705 0.12963867
0.08477783 0.039276123 0.021499634 -0.023498535 0.044830322 -0.0077705383 0.02217102 -0.03768921
00000000: 00a0 ba3d 00c0 2f3c 0020 033e 0000 023d
00000010: 00c0 dabc 00e0 f43d 00e0 053e 00a0 d03d
00000020: 00c0 bd3d 00a0 4bbc 0040 2b3d 0060 893e
00000030: 0080 ec3e 00a0 433e 00c0 4dbd 00a0 0c3d
00000040: 00c0 2f3d 00a0 463e 0060 f33d 0060 183e
00000050: 0000 ae3c 0080 2c3d 00c0 0e3e 0080 71bd
00000060: 0060 9a3c 00a0 b2be 0060 2cbd 0060 a8be
00000070: 00a0 68be 0020 5cbe 0040 ebbd 0020 5dbf
00000080: 0040 edbf 00a0 a0be 00c0 a7be 0000 8d3e
00000090: 00c0 033e 0060 08bf 0040 66be 00a0 9f3e
000000a0: 00c0 8cbd 00c0 eabe 00a0 3ebf 0080 bdbd
000000b0: 0000 cb3d 00a0 27be 00c0 9c3c 0060 ce3d
000000c0: 0020 3fbe 0040 c03d 00e0 373d 0080 7dbe
000000d0: 0060 3bbe 0020 51bd 00c0 20be 00c0 f03c
000000e0: 0020 7dbe 0000 3bbe 0040 edbe 00c0 02bf
000000f0: 00e0 24bc 0060 773f 0040 a93e 0060 debe
00000100: 0020 913b 00c0 d8bd 00e0 2fbe 00a0 37bd
00000110: 00c0 153e 0060 a33d 0040 a5bd 0020 2ebe
00000120: 0080 ddbd 0040 163e 0020 a4bd 00a0 6dbd
00000130: 0000 bebc 0020 35bd 0040 edbd 0040 dc3c
00000140: 0040 683c 0000 a53c 00a0 f2bd 0040 20be
00000150: 0020 a23d 0060 983d 00e0 e93c 0020 753d
00000160: 0040 1c3d 0040 ca3d 00c0 4d3e 00a0 033e
00000170: 0000 173e 00c0 d03d 0080 783d 00a0 1a3c
00000180: 0040 9c3b 0000 bf3d 00a0 1ebb 00e0 a9bc
00000190: 0060 ae3d 00e0 75be 00c0 9ebd 0080 1bbe
000001a0: 00e0 423d 0080 a0bd 0000 1d3e 00c0 a1be
000001b0: 0020 a43e 0020 133e 0060 99bd 0080 873f
000001c0: 00a0 3cc0 00e0 173f 0000 7d3d 00e0 a03d
000001d0: 0060 7dbe 00a0 3bbd 00a0 89bd 0020 95bd
000001e0: 00c0 473d 0020 50bd 0080 47be 00c0 b5bd
000001f0: 0020 d43c 0080 0ebd 00c0 4e3c 00c0 313d
00000200: 00e0 6dbd 00c0 0bbe 00c0 bc3d 00c0 093e
00000210: 0060 3bbc 00c0 963c 0000 81bd 00c0 8d3d
00000220: 0000 303e 00e0 683e 0080 6fbe 0060 43be
00000230: 0020 2e3d 0000 afbd 0080 9d3e 0000 1ebe
00000240: 0020 03be 0040 fd3c 0020 d83d 00a0 773d
00000250: 0080 21bd 0080 e2bd 00e0 3abd 0080 90bc
00000260: 0080 343d 0020 3cba 00e0 8abd 00c0 da3b
00000270: 0040 40bd 00e0 2bbe 0060 043d 0080 dabc
00000280: 0040 293e 00a0 ab3e 00e0 023e 00a0 cd3e
00000290: 00a0 db3d 0040 9d3d 00c0 ae3e 00a0 0d3e
000002a0: 00a0 473d 0000 003e 00a0 35bb 0060 d23c
000002b0: 0080 23be 0040 95bd 0040 e33c 00e0 17bf
000002c0: 00e0 b33d 00c0 ff3d 00a0 ff3d 00a0 953e
000002d0: 0000 7fbf 0060 f43e 0020 8a3f 0080 76be
000002e0: 00a0 393d 0080 a9bf 00c0 573f 0020 ab3f
000002f0: 00e0 dbbe 0060 7a3e 0080 bebe 0040 0ebf
00000300: 0000 623e 0060 a93d 0020 83bc 0020 eb3d
00000310: 0080 3e3e 0060 bf3e 0040 aa3d 0000 4bbe
00000320: 00a0 04be 00e0 d0bd 00a0 593e 0000 a2bd
00000330: 0080 ec3c 0020 963c 0000 8d3e 0000 2e3f
00000340: 0080 b13d 0020 503c 0040 33be 0040 863e
00000350: 00a0 163f 00e0 bb3d 0000 09bd 00c0 ccbd
00000360: 0020 23be 0040 a03b 0000 e03c 0000 8bbd
00000370: 00a0 403d 00c0 6abc 0000 0ebd 0080 acbc
00000380: 0080 653d 0020 b7bd 0040 6e3b 0020 bf3d
00000390: 00e0 cf3d 0040 253d 0040 a1bd 0000 73bc
000003a0: 0020 37bc 0000 773d 0060 1bbd 00e0 8dbd
000003b0: 00e0 d6bd 00e0 86bd 0020 693e 0080 b53d
000003c0: 0080 eb3c 00c0 b73d 0020 1b3e 0000 293e
000003d0: 00e0 783d 00e0 dabc 00a0 9c3d 00c0 043e
000003e0: 00a0 ad3d 00e0 203d 0020 b03c 0080 c0bc
000003f0: 00a0 373d 00a0 febb 00a0 b53c 0060 1abd

depthwise_conv2d_6/y:0 f4 [96]
-0.5371094 -0.1854248 0.47338867 -0.20178223 0.20458984 1.8837891 -0.51416016 0.15136719
-0.19128418 -0.17932129 0.14111328 -0.26733398 -0.28442383 -0.3852539 -1.0341797 -0.50634766
1.4794922 0.4951172 -0.04547119 0.1295166 -0.45922852 0.07110596 0.18652344 -0.1940918
-1.0751953 -0.19848633 -0.31103516 -0.38110352 -0.44067383 0.43579102 -0.08532715 -0.43798828
1.1289062 -0.025100708 0.19628906 -0.22644043 -0.30419922 0.037719727 -0.15966797 -0.2421875
-0.30493164 -0.7109375 0.40454102 -0.12866211 -0.61328125 0.39135742 0.31860352 -0.1352539
0.086120605 0.08404541 0.20983887 -0.15698242 -0.03137207 -0.20935059 -1.2568359 -0.2565918
0.6152344 -0.34179688 0.62060547 0.21472168 -0.08404541 -0.22729492 0.37573242 -0.07092285
0.52490234 0.25610352 -0.59472656 -0.18798828 -0.11853027 -0.25146484 -0.5600586 0.101379395
-0.41748047 -0.15002441 1.2539062 0.44506836 -0.117370605 -0.15539551 -0.20581055 -0.30566406
-0.87646484 0.12683105 0.059326172 0.039398193 -0.17736816 -0.32714844 -0.46118164 -0.41455078
0.005886078 -1.4677734 -0.26953125 0.3330078 -0.63623047 0.03604126 -0.060821533 0.42138672
00000000: 0080 09bf 00e0 3dbe 0060 f23e 00a0 4ebe
00000010: 0080 513e 0020 f13f 00a0 03bf 0000 1b3e
00000020: 00e0 43be 00a0 37be 0080 103e 00e0 88be
00000030: 00a0 91be 0040 c5be 0060 84bf 00a0 01bf
00000040: 0060 bd3f 0080 fd3e 0040 3abd 00a0 043e
00000050: 0020 ebbe 00a0 913d 0000 3f3e 00c0 46be
00000060: 00a0 89bf 0040 4bbe 0040 9fbe 0020 c3be
00000070: 00a0 e1be 0020 df3e 00c0 aebd 0040 e0be
00000080: 0080 903f 00a0 cdbc 0000 493e 00e0 67be
00000090: 00c0 9bbe 0080 1a3d 0080 23be 0000 78be
000000a0: 0020 9cbe 0000 36bf 0020 cf3e 00c0 03be
000000b0: 0000 1dbf 0060 c83e 0020 a33e 0080 0abe
000000c0: 0060 b03d 0020 ac3d 00e0 563e 00c0 20be
000000d0: 0080 00bd 0060 56be 00e0 a0bf 0060 83be
000000e0: 0080 1d3f 0000 afbe 00e0 1e3f 00e0 5b3e
000000f0: 0020 acbd 00c0 68be 0060 c03e 0040 91bd
00000100: 0060 063f 0020 833e 0040 18bf 0080 40be
00000110: 00c0 f2bd 00c0 80be 0060 0fbf 00a0 cf3d
00000120: 00c0 d5be 00a0 19be 0080 a03f 00e0 e33e
00000130: 0060 f0bd 0020 1fbe 00c0 52be 0080 9cbe
00000140: 0060 60bf 00e0 013e 0000 733d 0060 213d
00000150: 00a0 35be 0080 a7be 0020 ecbe 0040 d4be
00000160: 00e0 c03b 00e0 bbbf 0000 8abe 0080 aa3e
00000170: 00e0 22bf 00a0 133d 0020 79bd 00c0 d73e

depthwise_conv2d_6/depthwise_conv2d/filter_in:0 f4 [96, 1, 5, 5]
-0.0362854 0.390625 0.08337402 -0.30737305 0.07281494 0.2878418 1.21875 -0.3947754
-0.41601562 -0.35351562 0.85498047 -0.24621582 -0.61865234 -0.3474121 -0.46069336 0.28222656
0.097473145 0.06311035 0.20178223 0.15429688 0.08850098 -0.08795166 -0.18200684 -0.30932617
-0.11834717 0.23730469 -0.10443115 -0.051757812 -0.033447266 -0.025512695 -0.4375 -0.9433594
-0.9301758 -0.38671875 -0.35620117 -0.28320312 -0.53125 0.33691406 0.2998047 -0.120788574
-0.08166504 0.10296631 0.6015625 0.50927734 0.1907959 -0.012199402 0.013870239 -0.066833496
0.16845703 -0.008079529 -0.49365234 0.0076560974 0.11187744 -0.072509766 0.024673462 -0.671875
1.1367188 0.35717773 0.075927734 -0.1184082 -0.72802734 2.4355469 0.38012695 -0.22998047
0.012214661 0.4543457 0.49047852 0.5102539 -0.42944336 0.021591187 -0.20446777 0.8847656
0.46142578 0.36083984 0.20739746 0.9350586 0.89697266 -0.1541748 -0.08496094 -1.0400391
-0.43701172 -0.25170898 -0.36645508 0.26660156 0.048919678 -0.32470703 -1.7177734 0.91259766
2.015625 1.8632812 0.5834961 0.14587402 -0.4296875 1.4394531 0.4909668 -0.3774414
-0.3942871 -1.2851562 -0.87402344 -0.53759766 -0.046966553 0.014411926 0.025512695 0.08947754
0.085754395 -0.13183594 0.01776123 -0.140625 -0.030090332 0.031097412 -0.072753906 -0.044647217
-0.27294922 -0.15429688 0.0073013306 -0.13098145 -0.22546387 -0.12573242 -0.010040283 -0.1159668
-0.039398193 0.0340271 0.03768921 0.1381836 -0.10852051 0.23034668 -0.03692627 0.21948242
-0.24951172 0.70947266 -1.0048828 0.5395508 3.0019531 0.44604492 -0.27734375 -0.3076172
1.3427734 2.2929688 0.65283203 0.2770996 -0.052581787 0.34472656 0.4416504 -0.011123657
-0.12756348 -0.0390625 -0.27172852 -0.54248047 -0.19238281 -0.05142212 -0.112854004 -0.13671875
-0.023956299 0.44433594 -0.19677734 0.09576416 0.0035533905 0.10241699 0.36865234 -0.11035156
0.08300781 0.03137207 0.06488037 0.3046875 0.03338623 0.029525757 -0.009246826 -0.03817749
0.2277832 0.030593872 -0.051330566 -0.21228027 -0.12109375 0.28442383 -0.10479736 -0.14990234
-0.105285645 -0.047668457 -0.037750244 -0.21960449 -0.1652832 -0.15515137 -0.21789551 -0.2319336
-0.0703125 -0.21313477 -0.23388672 -0.17138672 0.0062065125 0.57714844 0.26123047 0.040222168
-0.18566895 -0.1439209 0.34106445 0.05130005 -0.12023926 -0.24609375 -0.1385498 0.03189087
0.04360962 0.054870605 0.24194336 0.19104004 0.19348145 0.05987549 -0.26757812 0.1138916
0.2602539 -0.03543091 -0.036712646 -0.12042236 -0.10662842 0.23730469 0.009803772 -0.09515381
-0.010177612 -0.111450195 -0.005924225 0.021972656 -0.03338623 -0.10058594 -0.040130615 0.033233643
0.09088135 -0.023117065 0.021392822 0.16235352 0.20263672 0.12963867 -0.10620117 -0.044555664
0.30517578 0.16967773 -0.1126709 0.117248535 0.18554688 0.4116211 -0.17614746 -0.2836914
0.0022354126 0.0435791 0.09625244 0.01965332 -0.05102539 -0.02041626 -0.13061523 0.18737793
0.004322052 -0.118896484 -0.01411438 -0.032806396 -0.058166504 -0.1394043 -0.14562988 -0.009613037
00000000: 00a0 14bd 0000 c83e 00c0 aa3d 0060 9dbe
00000010: 0020 953d 0060 933e 0000 9c3f 0020 cabe
00000020: 0000 d5be 0000 b5be 00e0 5a3f 0020 7cbe
00000030: 0060 1ebf 00e0 b1be 00e0 ebbe 0080 903e
00000040: 00a0 c73d 0040 813d 00a0 4e3e 0000 1e3e
00000050: 0040 b53d 0020 b4bd 0060 3abe 0060 9ebe
00000060: 0060 f2bd 0000 733e 00e0 d5bd 0000 54bd
00000070: 0000 09bd 0000 d1bc 0000 e0be 0080 71bf
00000080: 0020 6ebf 0000 c6be 0060 b6be 0000 91be
00000090: 0000 08bf 0080 ac3e 0080 993e 0060 f7bd
000000a0: 0040 a7bd 00e0 d23d 0000 1a3f 0060 023f
000000b0: 0060 433e 00e0 47bc 0040 633c 00e0 88bd
000000c0: 0080 2c3e 0060 04bc 00c0 fcbe 00e0 fa3b
000000d0: 0020 e53d 0080 94bd 0020 ca3c 0000 2cbf
000000e0: 0080 913f 00e0 b63e 0080 9b3d 0080 f2bd
000000f0: 0060 3abf 00e0 1b40 00a0 c23e 0080 6bbe
00000100: 0020 483c 00a0 e83e 0020 fb3e 00a0 023f
00000110: 00e0 dbbe 00e0 b03c 0060 51be 0080 623f
00000120: 0040 ec3e 00c0 b83e 0060 543e 0060 6f3f
00000130: 00a0 653f 00e0 1dbe 0000 aebd 0020 85bf
00000140: 00c0 dfbe 00e0 80be 00a0 bbbe 0080 883e
00000150: 0060 483d 0040 a6be 00e0 dbbf 00a0 693f
00000160: 0000 0140 0080 ee3f 0060 153f 0060 153e
00000170: 0000 dcbe 0040 b83f 0060 fb3e 0040 c1be
00000180: 00e0 c9be 0080 a4bf 00c0 5fbf 00a0 09bf
00000190: 0060 40bd 0020 6c3c 0000 d13c 0040 b73d
000001a0: 00a0 af3d 0000 07be 0080 913c 0000 10be
000001b0: 0080 f6bc 00c0 fe3c 0000 95bd 00e0 36bd
000001c0: 00c0 8bbe 0000 1ebe 0040 ef3b 0020 06be
000001d0: 00e0 66be 00c0 00be 0080 24bc 0080 edbd
000001e0: 0060 21bd 0060 0b3d 0060 1a3d 0080 0d3e
000001f0: 0040 debd 00e0 6b3e 0040 17bd 00c0 603e
00000200: 0080 7fbe 00a0 353f 00a0 80bf 0020 0a3f
00000210: 0020 4040 0060 e43e 0000 8ebe 0080 9dbe
00000220: 00e0 ab3f 00c0 1240 0020 273f 00e0 8d3e
00000230: 0060 57bd 0080 b03e 0020 e23e 0040 36bc
00000240: 00a0 02be 0000 20bd 0020 8bbe 00e0 0abf
00000250: 0000 45be 00a0 52bd 0020 e7bd 0000 0cbe
00000260: 0040 c4bc 0080 e33e 0080 49be 0020 c43d
00000270: 00e0 683b 00c0 d13d 00c0 bc3e 0000 e2bd
00000280: 0000 aa3d 0080 003d 00e0 843d 0000 9c3e
00000290: 00c0 083d 00e0 f13c 0080 17bc 0060 1cbd
000002a0: 0040 693e 00a0 fa3c 0040 52bd 0060 59be
000002b0: 0000 f8bd 00a0 913e 00a0 d6bd 0080 19be
000002c0: 00a0 d7bd 0040 43bd 00a0 1abd 00e0 60be
000002d0: 0040 29be 00e0 1ebe 0020 5fbe 0080 6dbe
000002e0: 0000 90bd 0040 5abe 0080 6fbe 0080 2fbe
000002f0: 0060 cb3b 00c0 133f 00c0 853e 00c0 243d
00000300: 0020 3ebe 0060 13be 00a0 ae3e 0020 523d
00000310: 0040 f6bd 0000 7cbe 00e0 0dbe 00a0 023d
00000320: 00a0 323d 00c0 603d 00c0 773e 00a0 433e
00000330: 0020 463e 0040 753d 0000 89be 0040 e93d
00000340: 0040 853e 0020 11bd 0060 16bd 00a0 f6bd
00000350: 0060 dabd 0000 733e 00a0 203c 00e0 c2bd
00000360: 00c0 26bc 0040 e4bd 0020 c2bb 0000 b43c
00000370: 00c0 08bd 0000 cebd 0060 24bd 0020 083d
00000380: 0020 ba3d 0060 bdbc 0040 af3c 0040 263e
00000390: 0080 4f3e 00c0 043e 0080 d9bd 0080 36bd
000003a0: 0040 9c3e 00c0 2d3e 00c0 e6bd 0020 f03d
000003b0: 0000 3e3e 00c0 d23e 0060 34be 0040 91be
000003c0: 0080 123b 0080 323d 0020 c53d 0000 a13c
000003d0: 0000 51bd 0040 a7bc 00c0 05be 00e0 3f3e
000003e0: 00a0 8d3b 0080 f3bd 0040 67bc 0060 06bd
000003f0: 0040 6ebd 00c0 0ebe 0020 15be 0080 1dbc

depthwise_conv2d_5/y:0 f4 [128]
0.1418457 -0.609375 -0.13293457 0.066467285 0.59814453 0.01940918 0.18688965 -0.25976562
0.08782959 -0.22363281 -0.4296875 1.1181641 -0.42797852 0.16882324 -0.29223633 -0.24731445
-0.0960083 -0.6381836 -0.55078125 -0.26171875 -0.04675293 -1.0537109 -0.18444824 0.50927734
-0.46142578 0.55859375 -0.4897461 0.31152344 0.022613525 -0.80810547 -0.19543457 -0.4567871
-0.046966553 -0.25463867 -0.36669922 -0.28222656 -0.6040039 -0.2697754 0.18762207 -0.11114502
0.1854248 -0.47216797 -0.38793945 -0.2746582 -0.70458984 0.23791504 -0.21240234 -0.60791016
-0.094177246 -0.13671875 -0.34814453 -0.079956055 -0.14746094 0.68896484 -0.5883789 0.006793976
2.7011719 -0.16467285 -0.33496094 -0.028137207 -0.13647461 -0.26635742 -0.66845703 -0.45092773
0.19116211 -0.07342529 -0.2841797 0.96972656 -0.041015625 0.29907227 -0.54785156 -0.46679688
-0.88134766 -0.56347656 -0.06756592 0.3408203 0.37841797 -0.39697266 -0.17993164 -0.31274414
-0.61328125 -2.0625 0.26342773 0.30566406 -0.3671875 -0.38305664 -0.79296875 -0.082214355
-1.0908203 -0.070495605 -0.43847656 -0.22924805 -0.0012168884 -0.03338623 0.7548828 -0.3425293
-1.1835938 -0.24951172 -0.2253418 0.008270264 -0.29077148 0.28735352 -0.27124023 -0.3251953
1.2216797 0.33422852 -0.66552734 -0.42529297 -0.4321289 -0.4465332 -0.19238281 -0.075927734
0.42822266 -1.8076172 0.39208984 0.5449219 -0.23132324 -0.19665527 -0.04711914 -0.5751953
0.48388672 0.101379395 0.0647583 -0.0670166 0.19006348 0.87060547 1.0976562 0.38671875
00000000: 0040 113e 0000 1cbf 0020 08be 0020 883d
00000010: 0020 193f 0000 9f3c 0060 3f3e 0000 85be
00000020: 00e0 b33d 0000 65be 0000 dcbe 0020 8f3f
00000030: 0020 dbbe 00e0 2c3e 00a0 95be 0040 7dbe
00000040: 00a0 c4bd 0060 23bf 0000 0dbf 0000 86be
00000050: 0080 3fbd 00e0 86bf 00e0 3cbe 0060 023f
00000060: 0040 ecbe 0000 0f3f 00c0 fabe 0080 9f3e
00000070: 0040 b93c 00e0 4ebf 0020 48be 00e0 e9be
00000080: 0060 40bd 0060 82be 00c0 bbbe 0080 90be
00000090: 00a0 1abf 0020 8abe 0020 403e 00a0 e3bd
000000a0: 00e0 3d3e 00c0 f1be 00a0 c6be 00a0 8cbe
000000b0: 0060 34bf 00a0 733e 0080 59be 00a0 1bbf
000000c0: 00e0 c0bd 0000 0cbe 0040 b2be 00c0 a3bd
000000d0: 0000 17be 0060 303f 00a0 16bf 00a0 de3b
000000e0: 00e0 2c40 00a0 28be 0080 abbe 0080 e6bc
000000f0: 00c0 0bbe 0060 88be 0020 2bbf 00e0 e6be
00000100: 00c0 433e 0060 96bd 0080 91be 0040 783f
00000110: 0000 28bd 0020 993e 0040 0cbf 0000 efbe
00000120: 00a0 61bf 0040 10bf 0060 8abd 0080 ae3e
00000130: 00c0 c13e 0040 cbbe 0040 38be 0020 a0be
00000140: 0000 1dbf 0000 04c0 00e0 863e 0080 9c3e
00000150: 0000 bcbe 0020 c4be 0000 4bbf 0060 a8bd
00000160: 00a0 8bbf 0060 90bd 0080 e0be 00c0 6abe
00000170: 0080 9fba 00c0 08bd 0040 413f 0060 afbe
00000180: 0080 97bf 0080 7fbe 00c0 66be 0080 073c
00000190: 00e0 94be 0020 933e 00e0 8abe 0080 a6be
000001a0: 0060 9c3f 0020 ab3e 0060 2abf 00c0 d9be
000001b0: 0040 ddbe 00a0 e4be 0000 45be 0080 9bbd
000001c0: 0040 db3e 0060 e7bf 00c0 c83e 0080 0b3f
000001d0: 00e0 6cbe 0060 49be 0000 41bd 0040 13bf
000001e0: 00c0 f73e 00a0 cf3d 00a0 843d 0040 89bd
000001f0: 00a0 423e 00e0 5e3f 0080 8c3f 0000 c63e

depthwise_conv2d_5/depthwise_conv2d/filter_in:0 f4 [128, 1, 5, 5]
-0.021057129 0.28320312 0.08001709 -0.1270752 -0.040771484 0.45141602 0.22570801 0.2849121
-0.36376953 -0.42626953 -0.32373047 -0.16418457 0.51660156 -0.5786133 -0.62402344 -0.55126953
-0.8828125 -0.40014648 -0.33398438 -0.20654297 0.31054688 0.02104187 0.13146973 0.36889648
0.26757812 0.001616478 0.031707764 0.045837402 -0.025680542 -0.013122559 -0.052703857 -0.124816895
-0.0030269623 -0.013153076 0.04458618 -0.053497314 0.07788086 0.13415527 0.52734375 -0.10498047
0.015930176 -0.07165527 0.054229736 0.01878357 0.033966064 0.036132812 0.004005432 0.08239746
-0.052703857 -0.08880615 -0.11956787 -0.05996704 -0.2836914 -0.42529297 -0.13781738 -0.20031738
0.08319092 -0.4038086 -0.20263672 -0.09307861 -0.14770508 -0.005874634 0.12384033 0.15881348
-0.09625244 -0.17504883 0.11236572 0.4350586 0.4423828 -0.014518738 0.07232666 0.10797119
0.24560547 0.26245117 0.29833984 0.56640625 0.3774414 -0.037628174 -0.3725586 -0.097229004
0.054718018 0.01890564 0.62939453 0.5488281 -0.23059082 -0.52783203 -0.5541992 -0.578125
1.703125 0.29833984 -0.06402588 0.2919922 -0.41137695 -0.5185547 -0.16174316 -0.6489258
-0.42211914 -0.5600586 -0.36816406 -0.07556152 -0.04159546 -0.05886841 -0.13269043 -0.0029792786
0.0010137558 -0.011421204 0.08520508 0.004283905 0.0317688 -0.06414795 -0.10925293 -0.10266113
-0.11187744 -0.046905518 -0.11987305 -0.045135498 -0.06866455 -0.058288574 0.00819397 0.055480957
-0.031585693 -0.03137207 -0.117004395 -0.045562744 -0.0289917 0.20910645 0.14916992 -0.033081055
-0.29101562 0.00018906593 0.14794922 0.073791504 -0.2734375 -0.4885254 -0.11883545 -0.14733887
-0.5703125 -0.35424805 -0.36523438 0.020812988 -0.24450684 -0.46264648 0.08685303 -0.016098022
0.039978027 -0.22558594 -0.1116333 0.03378296 0.066223145 0.04156494 0.04953003 -0.106933594
-0.21057129 -0.19934082 -0.019012451 -0.09362793 -0.16235352 -0.20812988 -0.2052002 -0.093444824
0.0023498535 -0.24157715 -0.26220703 -0.05102539 -0.016036987 -0.16784668 -0.20654297 0.12634277
0.09851074 -0.00039744377 -0.21362305 -0.044433594 0.07366943 0.070251465 0.052734375 0.14892578
0.14038086 0.7402344 0.09655762 -0.08795166 -0.073913574 0.14990234 -0.2919922 -0.26000977
0.07159424 0.21606445 0.57373047 0.0340271 -0.7290039 -0.25170898 -0.045532227 0.23022461
0.5341797 -0.3828125 -0.27978516 -0.05886841 -0.46264648 -0.14611816 -0.06915283 0.033203125
0.034973145 -0.045074463 -0.11419678 0.07501221 0.029785156 -0.013710022 -0.4333496 -0.38989258
0.14135742 0.07312012 0.16210938 0.16760254 0.045532227 0.18115234 -0.060058594 0.0289917
-0.07171631 -0.050720215 -0.23754883 -0.113586426 0.047332764 0.091674805 -0.016296387 -0.030044556
-0.03970337 -0.3293457 -0.11602783 -0.5839844 0.29101562 -0.44921875 0.19421387 -0.067871094
0.060180664 0.34301758 -1.5068359 -0.39697266 -1.0869141 -2.0527344 -0.24328613 1.1738281
1.3945312 1.8974609 0.22253418 -0.56591797 0.21203613 0.90625 0.5991211 0.05328369
0.15344238 0.050811768 0.046203613 -0.22644043 -0.43115234 -0.12133789 -0.046295166 -0.103881836
00000000: 0080 acbc 0000 913e 00e0 a33d 0020 02be
00000010: 0000 27bd 0020 e73e 0020 673e 00e0 913e
00000020: 0040 babe 0040 dabe 00c0 a5be 0020 28be
00000030: 0040 043f 0020 14bf 00c0 1fbf 0020 0dbf
00000040: 0000 62bf 00e0 ccbe 0000 abbe 0080 53be
00000050: 0000 9f3e 0060 ac3c 00a0 063e 00e0 bc3e
00000060: 0000 893e 00e0 d33a 00e0 013d 00c0 3b3d
00000070: 0060 d2bc 0000 57bc 00e0 57bd 00a0 ffbd
00000080: 0060 46bb 0080 57bc 00a0 363d 0020 5bbd
00000090: 0080 9f3d 0060 093e 0000 073f 0000 d7bd
000000a0: 0080 823c 00c0 92bd 0020 5e3d 00e0 993c
000000b0: 0020 0b3d 0000 143d 0040 833b 00c0 a83d
000000c0: 00e0 57bd 00e0 b5bd 00e0 f4bd 00a0 75bd
000000d0: 0040 91be 00c0 d9be 0020 0dbe 0020 4dbe
000000e0: 0060 aa3d 00c0 cebe 0080 4fbe 00a0 bebd
000000f0: 0040 17be 0080 c0bb 00a0 fd3d 00a0 223e
00000100: 0020 c5bd 0040 33be 0020 e63d 00c0 de3e
00000110: 0080 e23e 00e0 6dbc 0020 943d 0020 dd3d
00000120: 0080 7b3e 0060 863e 00c0 983e 0000 113f
00000130: 0040 c13e 0020 1abd 00c0 bebe 0020 c7bd
00000140: 0020 603d 00e0 9a3c 0020 213f 0080 0c3f
00000150: 0020 6cbe 0020 07bf 00e0 0dbf 0000 14bf
00000160: 0000 da3f 00c0 983e 0020 83bd 0080 953e
00000170: 00a0 d2be 00c0 04bf 00a0 25be 0020 26bf
00000180: 0020 d8be 0060 0fbf 0080 bcbe 00c0 9abd
00000190: 0060 2abd 0020 71bd 00e0 07be 0040 43bb
000001a0: 00e0 843a 0020 3bbc 0080 ae3d 0060 8c3b
000001b0: 0020 023d 0060 83bd 00c0 dfbd 0040 d2bd
000001c0: 0020 e5bd 0020 40bd 0080 f5bd 00e0 38bd
000001d0: 00a0 8cbd 00c0 6ebd 0040 063c 0040 633d
000001e0: 0060 01bd 0080 00bd 00a0 efbd 00a0 3abd
000001f0: 0080 edbc 0020 563e 00c0 183e 0080 07bd
00000200: 0000 95be 0040 4639 0080 173e 0020 973d
00000210: 0000 8cbe 0020 fabe 0060 f3bd 00e0 16be
00000220: 0000 12bf 0060 b5be 0000 bbbe 0080 aa3c
00000230: 0060 7abe 00e0 ecbe 00e0 b13d 00e0 83bc
00000240: 00c0 233d 0000 67be 00a0 e4bd 0060 0a3d
00000250: 00a0 873d 0040 2a3d 00e0 4a3d 0000 dbbd
00000260: 00a0 57be 0020 4cbe 00c0 9bbc 00c0 bfbd
00000270: 0040 26be 0020 55be 0020 52be 0060 bfbd
00000280: 0000 1a3b 0060 77be 0040 86be 0000 51bd
00000290: 0060 83bc 00e0 2bbe 0080 53be 0060 013e
000002a0: 00c0 c93d 0060 d0b9 00c0 5abe 0000 36bd
000002b0: 00e0 963d 00e0 8f3d 0000 583d 0080 183e
000002c0: 00c0 0f3e 0080 3d3f 00c0 c53d 0020 b4bd
000002d0: 0060 97bd 0080 193e 0080 95be 0020 85be
000002e0: 00a0 923d 0040 5d3e 00e0 123f 0060 0b3d
000002f0: 00a0 3abf 00e0 80be 0080 3abd 00c0 6b3e
00000300: 00c0 083f 0000 c4be 0040 8fbe 0020 71bd
00000310: 00e0 ecbe 00a0 15be 00a0 8dbd 0000 083d
00000320: 0040 0f3d 00a0 38bd 00e0 e9bd 00a0 993d
00000330: 0000 f43c 00a0 60bc 00e0 ddbe 00a0 c7be
00000340: 00c0 103e 00c0 953d 0000 263e 00a0 2b3e
00000350: 0080 3a3d 0080 393e 0000 76bd 0080 ed3c
00000360: 00e0 92bd 00c0 4fbd 0040 73be 00a0 e8bd
00000370: 00e0 413d 00c0 bb3d 0080 85bc 0020 f6bc
00000380: 00a0 22bd 00a0 a8be 00a0 edbd 0080 15bf
00000390: 0000 953e 0000 e6be 00e0 463e 0000 8bbd
000003a0: 0080 763d 00a0 af3e 00e0 c0bf 0040 cbbe
000003b0: 0020 8bbf 0060 03c0 0020 79be 0040 963f
000003c0: 0080 b23f 00e0 f23f 00e0 633e 00e0 10bf
000003d0: 0020 593e 0000 683f 0060 193f 0040 5a3d
000003e0: 0020 1d3e 0020 503d 0040 3d3d 00e0 67be
000003f0: 00c0 dcbe 0080 f8bd 00a0 3dbd 00c0 d4bd

depthwise_conv2d_4/y:0 f4 [128]
-0.7993164 0.29541016 -0.24279785 -0.4934082 -0.33325195 -0.5283203 -0.6894531 -0.36621094
0.3959961 0.7705078 -0.33251953 -0.42993164 -0.8461914 -0.23022461 0.40527344 -0.75146484
-0.65185547 0.0021953583 -0.30981445 -0.048095703 -0.71777344 0.74853516 -0.11010742 -0.30395508
-0.4025879 -0.34765625 -0.35083008 -0.5332031 0.15002441 0.3486328 0.59375 1.0273438
-0.45117188 0.20458984 -0.109802246 -0.6298828 -1.3574219 -1.015625 0.77441406 -0.8881836
0.38623047 0.35961914 -0.38964844 -0.13208008 0.036712646 -0.21484375 -0.72802734 -0.033447266
-0.74609375 0.29052734 0.27148438 0.2541504 0.22021484 -0.0703125 -0.60253906 2.8417969
-0.065979004 -0.80859375 -0.0069122314 0.20129395 -0.7529297 -0.95751953 0.19726562 -0.34643555
-0.25195312 -0.4543457 -0.09753418 -0.40649414 -0.6875 0.36791992 -0.27148438 -0.38793945
-0.6513672 -0.8691406 -0.20214844 -1.2197266 -0.13537598 0.19372559 -0.39453125 0.71191406
-0.046661377 0.19665527 0.22814941 -0.008735657 0.46875 0.9897461 -0.54785156 -0.081848145
0.035461426 1.4892578 -0.71875 -0.5415039 -0.7529297 0.42089844 -0.37036133 0.28710938
-0.034362793 -0.18908691 -0.1965332 -0.45654297 -1.5292969 -0.91748047 -0.39331055 -0.06365967
-0.28100586 0.5878906 -0.049072266 -0.7182617 -0.27978516 -0.7939453 -0.25952148 -0.34594727
0.21838379 -0.30541992 -1.4169922 -1.375 0.22583008 0.38891602 -0.02432251 -0.5805664
0.29077148 -1.3486328 -0.40039062 -0.31103516 -0.2084961 -0.42041016 -0.5463867 -0.0047836304
00000000: 00a0 4cbf 0040 973e 00a0 78be 00a0 fcbe
00000010: 00a0 aabe 0040 07bf 0080 30bf 0080 bbbe
00000020: 00c0 ca3e 0040 453f 0040 aabe 0020 dcbe
00000030: 00a0 58bf 00c0 6bbe 0080 cf3e 0060 40bf
00000040: 00e0 26bf 00e0 0f3b 00a0 9ebe 0000 45bd
00000050: 00c0 37bf 00a0 3f3f 0080 e1bd 00a0 9bbe
00000060: 0020 cebe 0000 b2be 00a0 b3be 0080 08bf
00000070: 00a0 193e 0080 b23e 0000 183f 0080 833f
00000080: 0000 e7be 0080 513e 00e0 e0bd 0040 21bf
00000090: 00c0 adbf 0000 82bf 0040 463f 0060 63bf
000000a0: 00c0 c53e 0020 b83e 0080 c7be 0040 07be
000000b0: 0060 163d 0000 5cbe 0060 3abf 0000 09bd
000000c0: 0000 3fbf 00c0 943e 0000 8b3e 0020 823e
000000d0: 0080 613e 0000 90bd 0040 1abf 00e0 3540
000000e0: 0020 87bd 0000 4fbf 0080 e2bb 0020 4e3e
000000f0: 00c0 40bf 0020 75bf 0000 4a3e 0060 b1be
00000100: 0000 81be 00a0 e8be 00c0 c7bd 0020 d0be
00000110: 0000 30bf 0060 bc3e 0000 8bbe 00a0 c6be
00000120: 00c0 26bf 0080 5ebf 0000 4fbe 0020 9cbf
00000130: 00a0 0abe 0060 463e 0000 cabe 0040 363f
00000140: 0020 3fbd 0060 493e 00a0 693e 0020 0fbc
00000150: 0000 f03e 0060 7d3f 0040 0cbf 00a0 a7bd
00000160: 0040 113d 00a0 be3f 0000 38bf 00a0 0abf
00000170: 00c0 40bf 0080 d73e 00a0 bdbe 0000 933e
00000180: 00c0 0cbd 00a0 41be 0040 49be 00c0 e9be
00000190: 00c0 c3bf 00e0 6abf 0060 c9be 0060 82bd
000001a0: 00e0 8fbe 0080 163f 0000 49bd 00e0 37bf
000001b0: 0040 8fbe 0040 4bbf 00e0 84be 0020 b1be
000001c0: 00a0 5f3e 0060 9cbe 0060 b5bf 0000 b0bf
000001d0: 0040 673e 0020 c73e 0040 c7bc 00a0 14bf
000001e0: 00e0 943e 00a0 acbf 0000 cdbe 0040 9fbe
000001f0: 0080 55be 0040 d7be 00e0 0bbf 00c0 9cbb

depthwise_conv2d_4/depthwise_conv2d/filter_in:0 f4 [128, 1, 5, 5]
0.057556152 -0.11590576 -0.0031414032 0.010643005 -0.05795288 0.14868164 0.059936523 -0.37963867
0.061553955 -0.017059326 -0.037475586 -0.4013672 0.18493652 0.1550293 -0.24267578 -0.11883545
-0.03967285 1.2802734 -0.30419922 -0.058380127 -0.11853027 0.3100586 0.67285156 -0.16833496
0.013923645 0.026733398 -0.010032654 0.14746094 -0.0061950684 0.014381409 -0.038024902 0.11260986
0.18041992 0.0758667 0.03881836 0.050811768 0.046173096 -0.27490234 -0.02217102 0.02166748
0.05441284 -0.07562256 -0.39233398 -0.113098145 0.0066871643 0.0045928955 -0.08251953 -0.0690918
-0.117248535 -0.034606934 -0.02671814 -0.13549805 -0.10925293 0.023895264 0.116882324 -0.35327148
-0.16223145 0.17480469 -0.3100586 -0.33764648 -0.3503418 0.078186035 0.92578125 -0.16918945
-0.6123047 0.027740479 -0.15258789 0.11480713 0.61572266 0.12963867 0.022918701 0.21960449
0.17871094 0.46191406 0.3737793 0.47583008 0.31323242 -0.88671875 -0.39648438 -0.13903809
-0.30688477 1.2587891 0.07019043 -0.26123047 -0.0657959 -0.20874023 -1.0136719 0.19506836
0.006790161 0.23706055 -0.083740234 0.37963867 0.03677368 -0.007637024 0.08770752 0.19555664
0.0357666 -0.122802734 -0.04989624 -0.006919861 0.040100098 -0.016952515 0.021881104 -0.040924072
-5.7816505e-06 0.1550293 0.26586914 0.32617188 0.010215759 -0.084472656 0.04537964 0.0023231506
-0.11517334 -0.17224121 -0.09991455 0.001750946 -0.025283813 0.11102295 0.066223145 -0.040008545
0.10473633 0.06451416 0.16723633 0.004497528 0.055633545 0.010246277 0.070251465 0.0031490326
-0.05331421 0.0047416687 0.03451538 -0.013496399 0.12231445 -0.04272461 0.037597656 -0.07763672
0.7705078 0.1282959 0.13427734 0.13269043 -0.35620117 0.19726562 -0.024108887 -0.09118652
-0.0446167 -0.1965332 -0.26489258 -0.12963867 -0.03829956 -0.07293701 -0.085510254 -0.08312988
-0.050048828 -0.08068848 -0.0009417534 0.023529053 -0.11230469 -0.30371094 -0.046691895 0.0637207
-0.033935547 -0.06008911 -0.121154785 -0.0036888123 -0.00970459 0.008216858 0.20788574 0.7192383
0.17443848 0.056732178 -0.025726318 -0.07373047 -0.09674072 0.020401001 0.03463745 -0.024047852
-0.06567383 -0.01600647 -0.08312988 -0.035003662 0.0138168335 -0.23913574 0.1227417 0.037719727
-0.098083496 0.037353516 0.07312012 0.13293457 0.4494629 0.0491333 -0.027557373 0.061798096
-0.1508789 0.06512451 -0.012023926 0.03253174 0.06518555 0.052093506 0.071899414 0.106933594
0.006340027 -0.086364746 -0.13916016 -0.03112793 -0.019454956 -0.056518555 -0.18310547 -0.23266602
-0.092285156 -0.04827881 -0.049713135 -0.17321777 -0.16564941 -0.06677246 -0.091674805 -0.045776367
0.0579834 0.23486328 -0.021377563 -0.054473877 0.048461914 0.007297516 0.028198242 -0.039245605
-0.00869751 0.41967773 0.44091797 0.21044922 0.050720215 0.69433594 0.03366089 0.115356445
0.0947876 0.5649414 0.3515625 -0.51953125 -1.1630859 -4.390625 -1.4013672 -0.6953125
0.48046875 0.0635376 -2.7988281 -0.5214844 0.26953125 -0.089416504 -0.5004883 -0.64404297
-0.19470215 -0.67626953 0.60839844 -0.062286377 0.16760254 0.08831787 0.39648438 0.88183594
00000000: 00c0 6b3d 0060 edbd 00e0 4dbb 0060 2e3c
00000010: 0060 6dbd 0040 183e 0080 753d 0060 c2be
00000020: 0020 7c3d 00c0 8bbc 0080 19bd 0080 cdbe
00000030: 0060 3d3e 00c0 1e3e 0080 78be 0060 f3bd
00000040: 0080 22bd 00e0 a33f 00c0 9bbe 0020 6fbd
00000050: 00c0 f2bd 00c0 9e3e 0040 2c3f 0060 2cbe
00000060: 0020 643c 0000 db3c 0060 24bc 0000 173e
00000070: 0000 cbbb 00a0 6b3c 00c0 1bbd 00a0 e63d
00000080: 00c0 383e 0060 9b3d 0000 1f3d 0020 503d
00000090: 0020 3d3d 00c0 8cbe 00a0 b5bc 0080 b13c
000000a0: 00e0 5e3d 00e0 9abd 00e0 c8be 00a0 e7bd
000000b0: 0020 db3b 0080 963b 0000 a9bd 0080 8dbd
000000c0: 0020 f0bd 00c0 0dbd 00e0 dabc 00c0 0abe
000000d0: 00c0 dfbd 00c0 c33c 0060 ef3d 00e0 b4be
000000e0: 0020 26be 0000 333e 00c0 9ebe 00e0 acbe
000000f0: 0060 b3be 0020 a03d 0000 6d3f 0040 2dbe
00000100: 00c0 1cbf 0040 e33c 0040 1cbe 0020 eb3d
00000110: 00a0 1d3f 00c0 043e 00c0 bb3c 00e0 603e
00000120: 0000 373e 0080 ec3e 0060 bf3e 00a0 f33e
00000130: 0060 a03e 0000 63bf 0000 cbbe 0060 0ebe
00000140: 0020 9dbe 0020 a13f 00c0 8f3d 00c0 85be
00000150: 00c0 86bd 00c0 55be 00c0 81bf 00c0 473e
00000160: 0080 de3b 00c0 723e 0080 abbd 0060 c23e
00000170: 00a0 163d 0040 fabb 00a0 b33d 0040 483e
00000180: 0080 123d 0080 fbbd 0060 4cbd 00c0 e2bb
00000190: 0040 243d 00e0 8abc 0040 b33c 00a0 27bd
000001a0: 0000 c2b6 00c0 1e3e 0020 883e 0000 a73e
000001b0: 0060 273c 0000 adbd 00e0 393d 0040 183b
000001c0: 00e0 ebbd 0060 30be 00a0 ccbd 0080 e53a
000001d0: 0020 cfbc 0060 e33d 00a0 873d 00e0 23bd
000001e0: 0080 d63d 0020 843d 0040 2b3e 0060 933b
000001f0: 00e0 633d 00e0 273c 00e0 8f3d 0060 4e3b
00000200: 0060 5abd 0060 9b3b 0060 0d3d 0020 5dbc
00000210: 0080 fa3d 0000 2fbd 0000 1a3d 0000 9fbd
00000220: 0040 453f 0060 033e 0080 093e 00e0 073e
00000230: 0060 b6be 0000 4a3e 0080 c5bc 00c0 babd
00000240: 00c0 36bd 0040 49be 00a0 87be 00c0 04be
00000250: 00e0 1cbd 0060 95bd 0020 afbd 0040 aabd
00000260: 0000 4dbd 0040 a5bd 00e0 76ba 00c0 c03c
00000270: 0000 e6bd 0080 9bbe 0040 3fbd 0080 823d
00000280: 0000 0bbd 0020 76bd 0020 f8bd 00c0 71bb
00000290: 0000 1fbc 00a0 063c 00e0 543e 0020 383f
000002a0: 00a0 323e 0060 683d 00c0 d2bc 0000 97bd
000002b0: 0020 c6bd 0020 a73c 00e0 0d3d 0000 c5bc
000002c0: 0080 86bd 0020 83bc 0040 aabd 0060 0fbd
000002d0: 0060 623c 00e0 74be 0060 fb3d 0080 1a3d
000002e0: 00e0 c8bd 0000 193d 00c0 953d 0020 083e
000002f0: 0020 e63e 0040 493d 00c0 e1bc 0020 7d3d
00000300: 0080 1abe 0060 853d 0000 45bc 0040 053d
00000310: 0080 853d 0060 553d 0040 933d 0000 db3d
00000320: 00c0 cf3b 00e0 b0bd 0080 0ebe 0000 ffbc
00000330: 0060 9fbc 0080 67bd 0080 3bbe 0040 6ebe
00000340: 0000 bdbd 00c0 45bd 00a0 4bbd 0060 31be
00000350: 00a0 29be 00c0 88bd 00c0 bbbd 0080 3bbd
00000360: 0080 6d3d 0080 703e 0020 afbc 0020 5fbd
00000370: 0080 463d 0020 ef3b 0000 e73c 00c0 20bd
00000380: 0080 0ebc 00e0 d63e 00c0 e13e 0080 573e
00000390: 00c0 4f3d 00c0 313f 00e0 093d 0040 ec3d
000003a0: 0020 c23d 00a0 103f 0000 b43e 0000 05bf
000003b0: 00e0 94bf 0080 8cc0 0060 b3bf 0000 32bf
000003c0: 0000 f63e 0020 823d 0020 33c0 0080 05bf
000003d0: 0000 8a3e 0020 b7bd 0020 00bf 00e0 24bf
000003e0: 0060 47be 0020 2dbf 00c0 1b3f 0020 7fbd
000003f0: 00a0 2b3e 00e0 b43d 0000 cb3e 00c0 613f

depthwise_conv2d_3/y:0 f4 [96]
-0.17480469 0.0064353943 0.28027344 0.45629883 0.6118164 0.06854248 0.78515625 -0.97314453
-1.7626953 -1.3486328 0.0001667738 0.1315918 1.7714844 -0.6972656 1.0556641 0.52734375
-0.43676758 -0.040618896 1.0878906 0.14880371 0.17333984 0.30688477 0.39013672 0.6567383
0.5410156 -0.28100586 -0.5029297 -0.3059082 -0.7109375 -0.24206543 0.9814453 0.16247559
0.49682617 0.40039062 -0.39501953 -0.39770508 -0.2619629 -0.08947754 -0.7675781 0.25097656
0.4880371 -0.21923828 -0.24291992 0.7416992 0.5439453 0.3251953 -0.043640137 0.5498047
0.58251953 0.85253906 0.76123047 1.8808594 0.08734131 0.4338379 0.7573242 -0.47998047
-0.030197144 0.26586914 1.5527344 -0.12731934 0.06689453 0.07342529 -0.5234375 -0.13024902
-0.17150879 -0.14282227 0.8203125 0.359375 0.21850586 0.44458008 0.4543457 -0.31274414
0.5288086 -0.097961426 -0.095458984 -0.6870117 1.7158203 -0.6069336 0.46264648 -1.4853516
0.8154297 0.5493164 -0.2788086 0.3876953 0.5625 1.6533203 -0.49853516 0.8105469
0.38891602 -0.5966797 0.113586426 0.44213867 0.61035156 -0.33935547 0.3166504 -0.7504883
00000000: 0000 33be 00e0 d23b 0080 8f3e 00a0 e93e
00000010: 00a0 1c3f 0060 8c3d 0000 493f 0020 79bf
00000020: 00a0 e1bf 00a0 acbf 00e0 2e39 00c0 063e
00000030: 00c0 e23f 0080 32bf 0020 873f 0000 073f
00000040: 00a0 dfbe 0060 26bd 0040 8b3f 0060 183e
00000050: 0080 313e 0020 9d3e 00c0 c73e 0020 283f
00000060: 0080 0a3f 00e0 8fbe 00c0 00bf 00a0 9cbe
00000070: 0000 36bf 00e0 77be 0040 7b3f 0060 263e
00000080: 0060 fe3e 0000 cd3e 0040 cabe 00a0 cbbe
00000090: 0020 86be 0040 b7bd 0080 44bf 0080 803e
000000a0: 00e0 f93e 0080 60be 00c0 78be 00e0 3d3f
000000b0: 0040 0b3f 0080 a63e 00c0 32bd 00c0 0c3f
000000c0: 0020 153f 0040 5a3f 00e0 423f 00c0 f03f
000000d0: 00e0 b23d 0020 de3e 00e0 413f 00c0 f5be
000000e0: 0060 f7bc 0020 883e 00c0 c63f 0060 02be
000000f0: 0000 893d 0060 963d 0000 06bf 0060 05be
00000100: 00a0 2fbe 0040 12be 0000 523f 0000 b83e
00000110: 00c0 5f3e 00a0 e33e 00a0 e83e 0020 a0be
00000120: 0060 073f 00a0 c8bd 0080 c3bd 00e0 2fbf
00000130: 00a0 db3f 0060 1bbf 00e0 ec3e 0020 bebf
00000140: 00c0 503f 00a0 0c3f 00c0 8ebe 0080 c63e
00000150: 0000 103f 00a0 d33f 0040 ffbe 0080 4f3f
00000160: 0020 c73e 00c0 18bf 00a0 e83d 0060 e23e
00000170: 0040 1c3f 00c0 adbe 0020 a23e 0020 40bf
